…
 1, 'formatters':{'simple': {'format': '[%(asctime)s][%(name)s][%(levelname)s] - %(message)s'}}, 'handlers': {'console': {'class': 'logging.StreamHandler', 'formatter': 'simple', 'stream': 'ext://sys.stdout'}, 'file': {'class': 'logging.FileHandler', 'formatter': 'simple', 'filename': 'hydra_train.log'}}, 'root': {'level': 'INFO', 'handlers': ['console', 'file']}, 'disable_existing_loggers':False}}\r\n[2021-12-10 19:09:08,391][fairseq_cli.train][INFO] - Wav2Vec2Model(\r\n  (feature_extractor): ConvFeatureExtractionModel(\r\n    (conv_layers): ModuleList(\r\n      (0): Sequential(\r\n        (0): Conv1d(1, 512, kernel_size=(10,), stride=(5,))\r\n        (1): Dropout(p=0.0, inplace=False)\r\n        (2): Sequential(\r\n          (0): TransposeLast()\r\n          (1): Fp32LayerNorm((512,), eps=1e-05, elementwise_affine=True)\r\n          (2): TransposeLast()\r\n        )\r\n        (3): GELU()\r\n      )\r\n      (1): Sequential(\r\n        (0): Conv1d(512, 512, kernel_size=(3,), stride=(2,))\r\n        (1): Dropout(p=0.0, inplace=False)\r\n        (2): Sequential(\r\n          (0): TransposeLast()\r\n          (1): Fp32LayerNorm((512,), eps=1e-05, elementwise_affine=True)\r\n          (2): TransposeLast()\r\n        )\r\n        (3): GELU()\r\n      )\r\n      (2): Sequential(\r\n        (0): Conv1d(512, 512, kernel_size=(3,), stride=(2,))\r\n        (1): Dropout(p=0.0, inplace=False)\r\n        (2): Sequential(\r\n          (0): TransposeLast()\r\n          (1): Fp32LayerNorm((512,), eps=1e-05, elementwise_affine=True)\r\n          (2): TransposeLast()\r\n        )\r\n        (3): GELU()\r\n      )\r\n      (3): Sequential(\r\n        (0): Conv1d(512, 512, kernel_size=(3,), stride=(2,))\r\n        (1): Dropout(p=0.0, inplace=False)\r\n        (2): Sequential(\r\n          (0): TransposeLast()\r\n          (1): Fp32LayerNorm((512,), eps=1e-05, elementwise_affine=True)\r\n          (2): TransposeLast()\r\n        )\r\n        (3): GELU()\r\n      )\r\n      (4): Sequential(\r\n        (0): Conv1d(512, 512, kernel_size=(3,), stride=(2,))\r\n        (1): Dropout(p=0.0, inplace=False)\r\n        (2): Sequential(\r\n          (0): TransposeLast()\r\n          (1): Fp32LayerNorm((512,), eps=1e-05, elementwise_affine=True)\r\n          (2): TransposeLast()\r\n        )\r\n        (3): GELU()\r\n      )\r\n      (5): Sequential(\r\n        (0): Conv1d(512, 512, kernel_size=(2,), stride=(2,))\r\n        (1): Dropout(p=0.0, inplace=False)\r\n        (2): Sequential(\r\n          (0): TransposeLast()\r\n          (1): Fp32LayerNorm((512,), eps=1e-05, elementwise_affine=True)\r\n          (2): TransposeLast()\r\n        )\r\n        (3): GELU()\r\n      )\r\n      (6): Sequential(\r\n        (0): Conv1d(512, 512, kernel_size=(2,), stride=(2,))\r\n        (1): Dropout(p=0.0, inplace=False)\r\n        (2): Sequential(\r\n          (0): TransposeLast()\r\n          (1): Fp32LayerNorm((512,), eps=1e-05, elementwise_affine=True)\r\n          (2): TransposeLast()\r\n        )\r\n        (3): GELU()\r\n      )\r\n    )\r\n  )\r\n  (post_extract_proj): Linear(in_features=512, out_features=2048, bias=True)\r\n  (dropout_input): Dropout(p=0.0, inplace=False)\r\n  (dropout_features): Dropout(p=0.0, inplace=False)\r\n  (quantizer): GumbelVectorQuantizer(\r\n    (weight_proj): Linear(in_features=512, out_features=640, bias=True)\r\n  )\r\n  (project_q): Linear(in_features=768, out_features=768, bias=True)\r\n  (encoder): TransformerEncoder(\r\n    (pos_conv): Sequential(\r\n      (0): Conv1d(2048, 2048, kernel_size=(128,), stride=(1,), padding=(64,), groups=16)\r\n      (1): SamePad()\r\n      (2): GELU()\r\n    )\r\n    (layers): ModuleList(\r\n      (0): TransformerSentenceEncoderLayer(\r\n        (self_attn): MultiheadAttention(\r\n          (dropout_module): FairseqDropout()\r\n          (k_proj): Linear(in_features=2048, out_features=2048, bias=True)\r\n          (v_proj): Linear(in_features=2048, out_features=2048, bias=True)\r\n          (q_proj): Linear(in_features=2048, out_features=2048, bias=True)\r\n          (out_proj): Linear(in_features=2048, out_features=2048, bias=True)\r\n        )\r\n        (dropout1): Dropout(p=0.0, inplace=False)\r\n        (dropout2): Dropout(p=0.0, inplace=False)\r\n        (dropout3): Dropout(p=0.0, inplace=False)\r\n        (self_attn_layer_norm): LayerNorm((2048,), eps=1e-05, elementwise_affine=True)\r\n        (fc1): Linear(in_features=2048, out_features=4096, bias=True)\r\n        (fc2): Linear(in_features=4096, out_features=2048, bias=True)\r\n        (final_layer_norm): LayerNorm((2048,), eps=1e-05, elementwise_affine=True)\r\n      )\r\n      (1): TransformerSentenceEncoderLayer(\r\n        (self_attn): MultiheadAttention(\r\n          (dropout_module): FairseqDropout()\r\n          (k_proj): Linear(in_features=2048, out_features=2048, bias=True)\r\n          (v_proj): Linear(in_features=2048, out_features=2048, bias=True)\r\n          (q_proj): Linear(in_features=2048, out_features=2048, bias=True)\r\n          (out_proj): Linear(in_features=2048, out_features=2048, bias=True)\r\n        )\r\n        (dropout1): Dropout(p=0.0, inplace=False)\r\n        (dropout2): Dropout(p=0.0, inplace=False)\r\n        (dropout3): Dropout(p=0.0, inplace=False)\r\n        (self_attn_layer_norm): LayerNorm((2048,), eps=1e-05, elementwise_affine=True)\r\n        (fc1): Linear(in_features=2048, out_features=4096, bias=True)\r\n        (fc2): Linear(in_features=4096, out_features=2048, bias=True)\r\n        (final_layer_norm): LayerNorm((2048,), eps=1e-05, elementwise_affine=True)\r\n      )\r\n      (2): TransformerSentenceEncoderLayer(\r\n        (self_attn): MultiheadAttention(\r\n          (dropout_module): FairseqDropout()\r\n          (k_proj): Linear(in_features=2048, out_features=2048, bias=True)\r\n          (v_proj): Linear(in_features=2048, out_features=2048, bias=True)\r\n          (q_proj): Linear(in_features=2048, out_features=2048, bias=True)\r\n          (out_proj): Linear(in_features=2048, out_features=2048, bias=True)\r\n        )\r\n        (dropout1): Dropout(p=0.0, inplace=False)\r\n        (dropout2): Dropout(p=0.0, inplace=False)\r\n        (dropout3): Dropout(p=0.0, inplace=False)\r\n        (self_attn_layer_norm): LayerNorm((2048,), eps=1e-05, elementwise_affine=True)\r\n        (fc1): Linear(in_features=2048, out_features=4096, bias=True)\r\n        (fc2): Linear(in_features=4096, out_features=2048, bias=True)\r\n        (final_layer_norm): LayerNorm((2048,), eps=1e-05, elementwise_affine=True)\r\n      )\r\n      (3): TransformerSentenceEncoderLayer(\r\n        (self_attn): MultiheadAttention(\r\n          (dropout_module): FairseqDropout()\r\n          (k_proj): Linear(in_features=2048, out_features=2048, bias=True)\r\n          (v_proj): Linear(in_features=2048, out_features=2048, bias=True)\r\n          (q_proj): Linear(in_features=2048, out_features=2048, bias=True)\r\n          (out_proj): Linear(in_features=2048, out_features=2048, bias=True)\r\n        )\r\n        (dropout1): Dropout(p=0.0, inplace=False)\r\n        (dropout2): Dropout(p=0.0, inplace=False)\r\n        (dropout3): Dropout(p=0.0, inplace=False)\r\n        (self_attn_layer_norm): LayerNorm((2048,), eps=1e-05, elementwise_affine=True)\r\n        (fc1): Linear(in_features=2048, out_features=4096, bias=True)\r\n        (fc2): Linear(in_features=4096, out_features=2048, bias=True)\r\n        (final_layer_norm): LayerNorm((2048,), eps=1e-05, elementwise_affine=True)\r\n      )\r\n      (4): TransformerSentenceEncoderLayer(\r\n        (self_attn): MultiheadAttention(\r\n          (dropout_module): FairseqDropout()\r\n          (k_proj): Linear(in_features=2048, out_features=2048, bias=True)\r\n          (v_proj): Linear(in_features=2048, out_features=2048, bias=True)\r\n          (q_proj): Linear(in_features=2048, out_features=2048, bias=True)\r\n          (out_proj): Linear(in_features=2048, out_features=2048, bias=True)\r\n        )\r\n        (dropout1): Dropout(p=0.0, inplace=False)\r\n        (dropout2): Dropout(p=0.0, inplace=False)\r\n        (dropout3): Dropout(p=0.0, inplace=False)\r\n        (self_attn_layer_norm): LayerNorm((2048,), eps=1e-05, elementwise_affine=True)\r\n        (fc1): Linear(in_features=2048, out_features=4096, bias=True)\r\n        (fc2): Linear(in_features=4096, out_features=2048, bias=True)\r\n        (final_layer_norm): LayerNorm((2048,), eps=1e-05, elementwise_affine=True)\r\n      )\r\n      (5): TransformerSentenceEncoderLayer(\r\n        (self_attn): MultiheadAttention(\r\n          (dropout_module): FairseqDropout()\r\n          (k_proj): Linear(in_features=2048, out_features=2048, bias=True)\r\n          (v_proj): Linear(in_features=2048, out_features=2048, bias=True)\r\n          (q_proj): Linear(in_features=2048, out_features=2048, bias=True)\r\n          (out_proj): Linear(in_features=2048, out_features=2048, bias=True)\r\n        )\r\n        (dropout1): Dropout(p=0.0, inplace=False)\r\n        (dropout2): Dropout(p=0.0, inplace=False)\r\n        (dropout3): Dropout(p=0.0, inplace=False)\r\n        (self_attn_layer_norm): LayerNorm((2048,), eps=1e-05, elementwise_affine=True)\r\n        (fc1): Linear(in_features=2048, out_features=4096, bias=True)\r\n        (fc2): Linear(in_features=4096, out_features=2048, bias=True)\r\n        (final_layer_norm): LayerNorm((2048,), eps=1e-05, elementwise_affine=True)\r\n      )\r\n      (6): TransformerSentenceEncoderLayer(\r\n        (self_attn): MultiheadAttention(\r\n          (dropout_module): FairseqDropout()\r\n          (k_proj): Linear(in_features=2048, out_features=2048, bias=True)\r\n          (v_proj): Linear(in_features=2048, out_features=2048, bias=True)\r\n          (q_proj): Linear(in_features=2048, out_features=2048, bias=True)\r\n          (out_proj): Linear(in_features=2048, out_features=2048, bias=True)\r\n        )\r\n        (dropout1): Dropout(p=0.0, inplace=False)\r\n        (dropout2): Dropout(p=0.0, inplace=False)\r\n        (dropout3): Dropout(p=0.0, inplace=False)\r\n        (self_attn_layer_norm): LayerNorm((2048,), eps=1e-05, elementwise_affine=True)\r\n        (fc1): Linear(in_features=2048, out_features=4096, bias=True)\r\n        (fc2): Linear(in_features=4096, out_features=2048, bias=True)\r\n        (final_layer_norm): LayerNorm((2048,), eps=1e-05, elementwise_affine=True)\r\n      )\r\n      (7): TransformerSentenceEncoderLayer(\r\n        (self_attn): MultiheadAttention(\r\n          (dropout_module): FairseqDropout()\r\n          (k_proj): Linear(in_features=2048, out_features=2048, bias=True)\r\n          (v_proj): Linear(in_features=2048, out_features=2048, bias=True)\r\n          (q_proj): Linear(in_features=2048, out_features=2048, bias=True)\r\n          (out_proj): Linear(in_features=2048, out_features=2048, bias=True)\r\n        )\r\n        (dropout1): Dropout(p=0.0, inplace=False)\r\n        (dropout2): Dropout(p=0.0, inplace=False)\r\n        (dropout3): Dropout(p=0.0, inplace=False)\r\n        (self_attn_layer_norm): LayerNorm((2048,), eps=1e-05, elementwise_affine=True)\r\n        (fc1): Linear(in_features=2048, out_features=4096, bias=True)\r\n        (fc2): Linear(in_features=4096, out_features=2048, bias=True)\r\n        (final_layer_norm): LayerNorm((2048,), eps=1e-05, elementwise_affine=True)\r\n      )\r\n      (8): TransformerSentenceEncoderLayer(\r\n        (self_attn): MultiheadAttention(\r\n          (dropout_module): FairseqDropout()\r\n          (k_proj): Linear(in_features=2048, out_features=2048, bias=True)\r\n          (v_proj): Linear(in_features=2048, out_features=2048, bias=True)\r\n          (q_proj): Linear(in_features=2048, out_features=2048, bias=True)\r\n          (out_proj): Linear(in_features=2048, out_features=2048, bias=True)\r\n        )\r\n        (dropout1): Dropout(p=0.0, inplace=False)\r\n        (dropout2): Dropout(p=0.0, inplace=False)\r\n        (dropout3): Dropout(p=0.0, inplace=False)\r\n        (self_attn_layer_norm): LayerNorm((2048,), eps=1e-05, elementwise_affine=True)\r\n        (fc1): Linear(in_features=2048, out_features=4096, bias=True)\r\n        (fc2): Linear(in_features=4096, out_features=2048, bias=True)\r\n        (final_layer_norm): LayerNorm((2048,), eps=1e-05, elementwise_affine=True)\r\n      )\r\n      (9): TransformerSentenceEncoderLayer(\r\n        (self_attn): MultiheadAttention(\r\n          (dropout_module): FairseqDropout()\r\n          (k_proj): Linear(in_features=2048, out_features=2048, bias=True)\r\n          (v_proj): Linear(in_features=2048, out_features=2048, bias=True)\r\n          (q_proj): Linear(in_features=2048, out_features=2048, bias=True)\r\n          (out_proj): Linear(in_features=2048, out_features=2048, bias=True)\r\n        )\r\n        (dropout1): Dropout(p=0.0, inplace=False)\r\n        (dropout2): Dropout(p=0.0, inplace=False)\r\n        (dropout3): Dropout(p=0.0, inplace=False)\r\n        (self_attn_layer_norm): LayerNorm((2048,), eps=1e-05, elementwise_affine=True)\r\n        (fc1): Linear(in_features=2048, out_features=4096, bias=True)\r\n        (fc2): Linear(in_features=4096, out_features=2048, bias=True)\r\n        (final_layer_norm): LayerNorm((2048,), eps=1e-05, elementwise_affine=True)\r\n      )\r\n      (10): TransformerSentenceEncoderLayer(\r\n        (self_attn): MultiheadAttention(\r\n          (dropout_module): FairseqDropout()\r\n          (k_proj): Linear(in_features=2048, out_features=2048, bias=True)\r\n          (v_proj): Linear(in_features=2048, out_features=2048, bias=True)\r\n          (q_proj): Linear(in_features=2048, out_features=2048, bias=True)\r\n          (out_proj): Linear(in_features=2048, out_features=2048, bias=True)\r\n        )\r\n        (dropout1): Dropout(p=0.0, inplace=False)\r\n        (dropout2): Dropout(p=0.0, inplace=False)\r\n        (dropout3): Dropout(p=0.0, inplace=False)\r\n        (self_attn_layer_norm): LayerNorm((2048,), eps=1e-05, elementwise_affine=True)\r\n        (fc1): Linear(in_features=2048, out_features=4096, bias=True)\r\n        (fc2): Linear(in_features=4096, out_features=2048, bias=True)\r\n        (final_layer_norm): LayerNorm((2048,), eps=1e-05, elementwise_affine=True)\r\n      )\r\n      (11): TransformerSentenceEncoderLayer(\r\n        (self_attn): MultiheadAttention(\r\n          (dropout_module): FairseqDropout()\r\n          (k_proj): Linear(in_features=2048, out_features=2048, bias=True)\r\n          (v_proj): Linear(in_features=2048, out_features=2048, bias=True)\r\n          (q_proj): Linear(in_features=2048, out_features=2048, bias=True)\r\n          (out_proj): Linear(in_features=2048, out_features=2048, bias=True)\r\n        )\r\n        (dropout1): Dropout(p=0.0, inplace=False)\r\n        (dropout2): Dropout(p=0.0, inplace=False)\r\n        (dropout3): Dropout(p=0.0, inplace=False)\r\n        (self_attn_layer_norm): LayerNorm((2048,), eps=1e-05, elementwise_affine=True)\r\n        (fc1): Linear(in_features=2048, out_features=4096, bias=True)\r\n        (fc2): Linear(in_features=4096, out_features=2048, bias=True)\r\n        (final_layer_norm): LayerNorm((2048,), eps=1e-05, elementwise_affine=True)\r\n      )\r\n      (12): TransformerSentenceEncoderLayer(\r\n        (self_attn): MultiheadAttention(\r\n          (dropout_module): FairseqDropout()\r\n          (k_proj): Linear(in_features=2048, out_features=2048, bias=True)\r\n          (v_proj): Linear(in_features=2048, out_features=2048, bias=True)\r\n          (q_proj): Linear(in_features=2048, out_features=2048, bias=True)\r\n          (out_proj): Linear(in_features=2048, out_features=2048, bias=True)\r\n        )\r\n        (dropout1): Dropout(p=0.0, inplace=False)\r\n        (dropout2): Dropout(p=0.0, inplace=False)\r\n        (dropout3): Dropout(p=0.0, inplace=False)\r\n        (self_attn_layer_norm): LayerNorm((2048,), eps=1e-05, elementwise_affine=True)\r\n        (fc1): Linear(in_features=2048, out_features=4096, bias=True)\r\n        (fc2): Linear(in_features=4096, out_features=2048, bias=True)\r\n        (final_layer_norm): LayerNorm((2048,), eps=1e-05, elementwise_affine=True)\r\n      )\r\n      (13): TransformerSentenceEncoderLayer(\r\n        (self_attn): MultiheadAttention(\r\n          (dropout_module): FairseqDropout()\r\n          (k_proj): Linear(in_features=2048, out_features=2048, bias=True)\r\n          (v_proj): Linear(in_features=2048, out_features=2048, bias=True)\r\n          (q_proj): Linear(in_features=2048, out_features=2048, bias=True)\r\n          (out_proj): Linear(in_features=2048, out_features=2048, bias=True)\r\n        )\r\n        (dropout1): Dropout(p=0.0, inplace=False)\r\n        (dropout2): Dropout(p=0.0, inplace=False)\r\n        (dropout3): Dropout(p=0.0, inplace=False)\r\n        (self_attn_layer_norm): LayerNorm((2048,), eps=1e-05, elementwise_affine=True)\r\n        (fc1): Linear(in_features=2048, out_features=4096, bias=True)\r\n        (fc2): Linear(in_features=4096, out_features=2048, bias=True)\r\n        (final_layer_norm): LayerNorm((2048,), eps=1e-05, elementwise_affine=True)\r\n      )\r\n      (14): TransformerSentenceEncoderLayer(\r\n        (self_attn): MultiheadAttention(\r\n          (dropout_module): FairseqDropout()\r\n          (k_proj): Linear(in_features=2048, out_features=2048, bias=True)\r\n          (v_proj): Linear(in_features=2048, out_features=2048, bias=True)\r\n          (q_proj): Linear(in_features=2048, out_features=2048, bias=True)\r\n          (out_proj): Linear(in_features=2048, out_features=2048, bias=True)\r\n        )\r\n        (dropout1): Dropout(p=0.0, inplace=False)\r\n        (dropout2): Dropout(p=0.0, inplace=False)\r\n        (dropout3): Dropout(p=0.0, inplace=False)\r\n        (self_attn_layer_norm): LayerNorm((2048,), eps=1e-05, elementwise_affine=True)\r\n        (fc1): Linear(in_features=2048, out_features=4096, bias=True)\r\n        (fc2): Linear(in_features=4096, out_features=2048, bias=True)\r\n        (final_layer_norm): LayerNorm((2048,), eps=1e-05, elementwise_affine=True)\r\n      )\r\n      (15): TransformerSentenceEncoderLayer(\r\n        (self_attn): MultiheadAttention(\r\n          (dropout_module): FairseqDropout()\r\n          (k_proj): Linear(in_features=2048, out_features=2048, bias=True)\r\n          (v_proj): Linear(in_features=2048, out_features=2048, bias=True)\r\n          (q_proj): Linear(in_features=2048, out_features=2048, bias=True)\r\n          (out_proj): Linear(in_features=2048, out_features=2048, bias=True)\r\n        )\r\n        (dropout1): Dropout(p=0.0, inplace=False)\r\n        (dropout2): Dropout(p=0.0, inplace=False)\r\n        (dropout3): Dropout(p=0.0, inplace=False)\r\n        (self_attn_layer_norm): LayerNorm((2048,), eps=1e-05, elementwise_affine=True)\r\n        (fc1): Linear(in_features=2048, out_features=4096, bias=True)\r\n        (fc2): Linear(in_features=4096, out_features=2048, bias=True)\r\n        (final_layer_norm): LayerNorm((2048,), eps=1e-05, elementwise_affine=True)\r\n      )\r\n      (16): TransformerSentenceEncoderLayer(\r\n        (self_attn): MultiheadAttention(\r\n          (dropout_module): FairseqDropout()\r\n          (k_proj): Linear(in_features=2048, out_features=2048, bias=True)\r\n          (v_proj): Linear(in_features=2048, out_features=2048, bias=True)\r\n          (q_proj): Linear(in_features=2048, out_features=2048, bias=True)\r\n          (out_proj): Linear(in_features=2048, out_features=2048, bias=True)\r\n        )\r\n        (dropout1): Dropout(p=0.0, inplace=False)\r\n        (dropout2): Dropout(p=0.0, inplace=False)\r\n        (dropout3): Dropout(p=0.0, inplace=False)\r\n        (self_attn_layer_norm): LayerNorm((2048,), eps=1e-05, elementwise_affine=True)\r\n        (fc1): Linear(in_features=2048, out_features=4096, bias=True)\r\n        (fc2): Linear(in_features=4096, out_features=2048, bias=True)\r\n        (final_layer_norm): LayerNorm((2048,), eps=1e-05, elementwise_affine=True)\r\n      )\r\n      (17): TransformerSentenceEncoderLayer(\r\n        (self_attn): MultiheadAttention(\r\n          (dropout_module): FairseqDropout()\r\n          (k_proj): Linear(in_features=2048, out_features=2048, bias=True)\r\n          (v_proj): Linear(in_features=2048, out_features=2048, bias=True)\r\n          (q_proj): Linear(in_features=2048, out_features=2048, bias=True)\r\n          (out_proj): Linear(in_features=2048, out_features=2048, bias=True)\r\n        )\r\n        (dropout1): Dropout(p=0.0, inplace=False)\r\n        (dropout2): Dropout(p=0.0, inplace=False)\r\n        (dropout3): Dropout(p=0.0, inplace=False)\r\n        (self_attn_layer_norm): LayerNorm((2048,), eps=1e-05, elementwise_affine=True)\r\n        (fc1): Linear(in_features=2048, out_features=4096, bias=True)\r\n        (fc2): Linear(in_features=4096, out_features=2048, bias=True)\r\n        (final_layer_norm): LayerNorm((2048,), eps=1e-05, elementwise_affine=True)\r\n      )\r\n      (18): TransformerSentenceEncoderLayer(\r\n        (self_attn): MultiheadAttention(\r\n          (dropout_module): FairseqDropout()\r\n          (k_proj): Linear(in_features=2048, out_features=2048, bias=True)\r\n          (v_proj): Linear(in_features=2048, out_features=2048, bias=True)\r\n          (q_proj): Linear(in_features=2048, out_features=2048, bias=True)\r\n          (out_proj): Linear(in_features=2048, out_features=2048, bias=True)\r\n        )\r\n        (dropout1): Dropout(p=0.0, inplace=False)\r\n        (dropout2): Dropout(p=0.0, inplace=False)\r\n        (dropout3): Dropout(p=0.0, inplace=False)\r\n        (self_attn_layer_norm): LayerNorm((2048,), eps=1e-05, elementwise_affine=True)\r\n        (fc1): Linear(in_features=2048, out_features=4096, bias=True)\r\n        (fc2): Linear(in_features=4096, out_features=2048, bias=True)\r\n        (final_layer_norm): LayerNorm((2048,), eps=1e-05, elementwise_affine=True)\r\n      )\r\n      (19): TransformerSentenceEncoderLayer(\r\n        (self_attn): MultiheadAttention(\r\n          (dropout_module): FairseqDropout()\r\n          (k_proj): Linear(in_features=2048, out_features=2048, bias=True)\r\n          (v_proj): Linear(in_features=2048, out_features=2048, bias=True)\r\n          (q_proj): Linear(in_features=2048, out_features=2048, bias=True)\r\n          (out_proj): Linear(in_features=2048, out_features=2048, bias=True)\r\n        )\r\n        (dropout1): Dropout(p=0.0, inplace=False)\r\n        (dropout2): Dropout(p=0.0, inplace=False)\r\n        (dropout3): Dropout(p=0.0, inplace=False)\r\n        (self_attn_layer_norm): LayerNorm((2048,), eps=1e-05, elementwise_affine=True)\r\n        (fc1): Linear(in_features=2048, out_features=4096, bias=True)\r\n        (fc2): Linear(in_features=4096, out_features=2048, bias=True)\r\n        (final_layer_norm): LayerNorm((2048,), eps=1e-05, elementwise_affine=True)\r\n      )\r\n      (20): TransformerSentenceEncoderLayer(\r\n        (self_attn): MultiheadAttention(\r\n          (dropout_module): FairseqDropout()\r\n          (k_proj): Linear(in_features=2048, out_features=2048, bias=True)\r\n          (v_proj): Linear(in_features=2048, out_features=2048, bias=True)\r\n          (q_proj): Linear(in_features=2048, out_features=2048, bias=True)\r\n          (out_proj): Linear(in_features=2048, out_features=2048, bias=True)\r\n        )\r\n        (dropout1): Dropout(p=0.0, inplace=False)\r\n        (dropout2): Dropout(p=0.0, inplace=False)\r\n        (dropout3): Dropout(p=0.0, inplace=False)\r\n        (self_attn_layer_norm): LayerNorm((2048,), eps=1e-05, elementwise_affine=True)\r\n        (fc1): Linear(in_features=2048, out_features=4096, bias=True)\r\n        (fc2): Linear(in_features=4096, out_features=2048, bias=True)\r\n        (final_layer_norm): LayerNorm((2048,), eps=1e-05, elementwise_affine=True)\r\n      )\r\n      (21): TransformerSentenceEncoderLayer(\r\n        (self_attn): MultiheadAttention(\r\n          (dropout_module): FairseqDropout()\r\n          (k_proj): Linear(in_features=2048, out_features=2048, bias=True)\r\n          (v_proj): Linear(in_features=2048, out_features=2048, bias=True)\r\n          (q_proj): Linear(in_features=2048, out_features=2048, bias=True)\r\n          (out_proj): Linear(in_features=2048, out_features=2048, bias=True)\r\n        )\r\n        (dropout1): Dropout(p=0.0, inplace=False)\r\n        (dropout2): Dropout(p=0.0, inplace=False)\r\n        (dropout3): Dropout(p=0.0, inplace=False)\r\n        (self_attn_layer_norm): LayerNorm((2048,), eps=1e-05, elementwise_affine=True)\r\n        (fc1): Linear(in_features=2048, out_features=4096, bias=True)\r\n        (fc2): Linear(in_features=4096, out_features=2048, bias=True)\r\n        (final_layer_norm): LayerNorm((2048,), eps=1e-05, elementwise_affine=True)\r\n      )\r\n      (22): TransformerSentenceEncoderLayer(\r\n        (self_attn): MultiheadAttention(\r\n          (dropout_module): FairseqDropout()\r\n          (k_proj): Linear(in_features=2048, out_features=2048, bias=True)\r\n          (v_proj): Linear(in_features=2048, out_features=2048, bias=True)\r\n          (q_proj): Linear(in_features=2048, out_features=2048, bias=True)\r\n          (out_proj): Linear(in_features=2048, out_features=2048, bias=True)\r\n        )\r\n        (dropout1): Dropout(p=0.0, inplace=False)\r\n        (dropout2): Dropout(p=0.0, inplace=False)\r\n        (dropout3): Dropout(p=0.0, inplace=False)\r\n        (self_attn_layer_norm): LayerNorm((2048,), eps=1e-05, elementwise_affine=True)\r\n        (fc1): Linear(in_features=2048, out_features=4096, bias=True)\r\n        (fc2): Linear(in_features=4096, out_features=2048, bias=True)\r\n        (final_layer_norm): LayerNorm((2048,), eps=1e-05, elementwise_affine=True)\r\n      )\r\n      (23): TransformerSentenceEncoderLayer(\r\n        (self_attn): MultiheadAttention(\r\n          (dropout_module): FairseqDropout()\r\n          (k_proj): Linear(in_features=2048, out_features=2048, bias=True)\r\n          (v_proj): Linear(in_features=2048, out_features=2048, bias=True)\r\n          (q_proj): Linear(in_features=2048, out_features=2048, bias=True)\r\n          (out_proj): Linear(in_features=2048, out_features=2048, bias=True)\r\n        )\r\n        (dropout1): Dropout(p=0.0, inplace=False)\r\n        (dropout2): Dropout(p=0.0, inplace=False)\r\n        (dropout3): Dropout(p=0.0, inplace=False)\r\n        (self_attn_layer_norm): LayerNorm((2048,), eps=1e-05, elementwise_affine=True)\r\n        (fc1): Linear(in_features=2048, out_features=4096, bias=True)\r\n        (fc2): Linear(in_features=4096, out_features=2048, bias=True)\r\n        (final_layer_norm): LayerNorm((2048,), eps=1e-05, elementwise_affine=True)\r\n      )\r\n    )\r\n    (layer_norm): LayerNorm((2048,), eps=1e-05, elementwise_affine=True)\r\n  )\r\n  (layer_norm): LayerNorm((512,), eps=1e-05, elementwise_affine=True)\r\n  (final_proj): Linear(in_features=2048, out_features=768, bias=True)\r\n)\r\n[2021-12-10 19:09:08,396][fairseq_cli.train][INFO] - task: AudioPretrainingTask\r\n[2021-12-10 19:09:08,396][fairseq_cli.train][INFO] - model: Wav2Vec2Model\r\n[2021-12-10 19:09:08,396][fairseq_cli.train][INFO] - criterion: Wav2vecCriterion\r\n[2021-12-10 19:09:08,399][fairseq_cli.train][INFO] - num. shared model params: 847,409,920 (num. trai
…
s.translation | [it] dictionary: 84800 types\r\n2021-02-04 20:05:25 | INFO | fairseq.tasks.translation | [en] dictionary: 84800 types\r\n2021-02-04 20:05:25 | INFO | fairseq.data.data_utils | loaded 14,000 examples from: ./valid.it-en.it\r\n2021-02-04 20:05:25 | INFO | fairseq.data.data_utils | loaded 14,000 examples from: ./valid.it-en.en\r\n2021-02-04 20:05:25 | INFO | fairseq.tasks.translation | ./ valid it-en 14000 examples\r\n2021-02-04 20:05:28 | INFO | fairseq_cli.train | TransformerModel(\r\n  (encoder): TransformerEncoder(\r\n    (dropout_module): FairseqDropout()\r\n    (embed_tokens): Embedding(84800, 1024, padding_idx=1)\r\n    (embed_positions): SinusoidalPositionalEmbedding()\r\n    (layers): ModuleList(\r\n      (0): TransformerEncoderLayer(\r\n        (self_attn): MultiheadAttention(\r\n          (dropout_module): FairseqDropout()\r\n          (k_proj): Linear(in_features=1024, out_features=1024, bias=True)\r\n          (v_proj): Linear(in_features=1024, out_features=1024, bias=True)\r\n          (q_proj): Linear(in_features=1024, out_features=1024, bias=True)\r\n          (out_proj): Linear(in_features=1024, out_features=1024, bias=True)\r\n        )\r\n        (self_attn_layer_norm): LayerNorm((1024,), eps=1e-05, elementwise_affine=True)\r\n        (dropout_module): FairseqDropout()\r\n        (activation_dropout_module): FairseqDropout()\r\n        (fc1): Linear(in_features=1024, out_features=4096, bias=True)\r\n        (fc2): Linear(in_features=4096, out_features=1024, bias=True)\r\n        (final_layer_norm): LayerNorm((1024,), eps=1e-05, elementwise_affine=True)\r\n      )\r\n      (1): TransformerEncoderLayer(\r\n        (self_attn): MultiheadAttention(\r\n          (dropout_module): FairseqDropout()\r\n          (k_proj): Linear(in_features=1024, out_features=1024, bias=True)\r\n          (v_proj): Linear(in_features=1024, out_features=1024, bias=True)\r\n          (q_proj): Linear(in_features=1024, out_features=1024, bias=True)\r\n          (out_proj): Linear(in_features=1024, out_features=1024, bias=True)\r\n        )\r\n        (self_attn_layer_norm): LayerNorm((1024,), eps=1e-05, elementwise_affine=True)\r\n        (dropout_module): FairseqDropout()\r\n        (activation_dropout_module): FairseqDropout()\r\n        (fc1): Linear(in_features=1024, out_features=4096, bias=True)\r\n        (fc2): Linear(in_features=4096, out_features=1024, bias=True)\r\n        (final_layer_norm): LayerNorm((1024,), eps=1e-05, elementwise_affine=True)\r\n      )\r\n      (2): TransformerEncoderLayer(\r\n        (self_attn): MultiheadAttention(\r\n          (dropout_module): FairseqDropout()\r\n          (k_proj): Linear(in_features=1024, out_features=1024, bias=True)\r\n          (v_proj): Linear(in_features=1024, out_features=1024, bias=True)\r\n          (q_proj): Linear(in_features=1024, out_features=1024, bias=True)\r\n          (out_proj): Linear(in_features=1024, out_features=1024, bias=True)\r\n        )\r\n        (self_attn_layer_norm): LayerNorm((1024,), eps=1e-05, elementwise_affine=True)\r\n        (dropout_module): FairseqDropout()\r\n        (activation_dropout_module): FairseqDropout()\r\n        (fc1): Linear(in_features=1024, out_features=4096, bias=True)\r\n        (fc2): Linear(in_features=4096, out_features=1024, bias=True)\r\n        (final_layer_norm): LayerNorm((1024,), eps=1e-05, elementwise_affine=True)\r\n      )\r\n      (3): TransformerEncoderLayer(\r\n        (self_attn): MultiheadAttention(\r\n          (dropout_module): FairseqDropout()\r\n          (k_proj): Linear(in_features=1024, out_features=1024, bias=True)\r\n          (v_proj): Linear(in_features=1024, out_features=1024, bias=True)\r\n          (q_proj): Linear(in_features=1024, out_features=1024, bias=True)\r\n          (out_proj): Linear(in_features=1024, out_features=1024, bias=True)\r\n        )\r\n        (self_attn_layer_norm): LayerNorm((1024,), eps=1e-05, elementwise_affine=True)\r\n        (dropout_module): FairseqDropout()\r\n        (activation_dropout_module): FairseqDropout()\r\n        (fc1): Linear(in_features=1024, out_features=4096, bias=True)\r\n        (fc2): Linear(in_features=4096, out_features=1024, bias=True)\r\n        (final_layer_norm): LayerNorm((1024,), eps=1e-05, elementwise_affine=True)\r\n      )\r\n      (4): TransformerEncoderLayer(\r\n        (self_attn): MultiheadAttention(\r\n          (dropout_module): FairseqDropout()\r\n          (k_proj): Linear(in_features=1024, out_features=1024, bias=True)\r\n          (v_proj): Linear(in_features=1024, out_features=1024, bias=True)\r\n          (q_proj): Linear(in_features=1024, out_features=1024, bias=True)\r\n          (out_proj): Linear(in_features=1024, out_features=1024, bias=True)\r\n        )\r\n        (self_attn_layer_norm): LayerNorm((1024,), eps=1e-05, elementwise_affine=True)\r\n        (dropout_module): FairseqDropout()\r\n        (activation_dropout_module): FairseqDropout()\r\n        (fc1): Linear(in_features=1024, out_features=4096, bias=True)\r\n        (fc2): Linear(in_features=4096, out_features=1024, bias=True)\r\n        (final_layer_norm): LayerNorm((1024,), eps=1e-05, elementwise_affine=True)\r\n      )\r\n      (5): TransformerEncoderLayer(\r\n        (self_attn): MultiheadAttention(\r\n          (dropout_module): FairseqDropout()\r\n          (k_proj): Linear(in_features=1024, out_features=1024, bias=True)\r\n          (v_proj): Linear(in_features=1024, out_features=1024, bias=True)\r\n          (q_proj): Linear(in_features=1024, out_features=1024, bias=True)\r\n          (out_proj): Linear(in_features=1024, out_features=1024, bias=True)\r\n        )\r\n        (self_attn_layer_norm): LayerNorm((1024,), eps=1e-05, elementwise_affine=True)\r\n        (dropout_module): FairseqDropout()\r\n        (activation_dropout_module): FairseqDropout()\r\n        (fc1): Linear(in_features=1024, out_features=4096, bias=True)\r\n        (fc2): Linear(in_features=4096, out_features=1024, bias=True)\r\n        (final_layer_norm): LayerNorm((1024,), eps=1e-05, elementwise_affine=True)\r\n      )\r\n    )\r\n  )\r\n  (decoder): TransformerDecoder(\r\n    (dropout_module): FairseqDropout()\r\n    (embed_tokens): Embedding(84800, 1024, padding_idx=1)\r\n    (embed_positions): SinusoidalPositionalEmbedding()\r\n    (layers): ModuleList(\r\n      (0): TransformerDecoderLayer(\r\n        (dropout_module): FairseqDropout()\r\n        (self_attn): MultiheadAttention(\r\n          (dropout_module): FairseqDropout()\r\n          (k_proj): Linear(in_features=1024, out_features=1024, bias=True)\r\n          (v_proj): Linear(in_features=1024, out_features=1024, bias=True)\r\n          (q_proj): Linear(in_features=1024, out_features=1024, bias=True)\r\n          (out_proj): Linear(in_features=1024, out_features=1024, bias=True)\r\n        )\r\n        (activation_dropout_module): FairseqDropout()\r\n        (self_attn_layer_norm): LayerNorm((1024,), eps=1e-05, elementwise_affine=True)\r\n        (encoder_attn): MultiheadAttention(\r\n          (dropout_module): FairseqDropout()\r\n          (k_proj): Linear(in_features=1024, out_features=1024, bias=True)\r\n          (v_proj): Linear(in_features=1024, out_features=1024, bias=True)\r\n          (q_proj): Linear(in_features=1024, out_features=1024, bias=True)\r\n          (out_proj): Linear(in_features=1024, out_features=1024, bias=True)\r\n        )\r\n        (encoder_attn_layer_norm): LayerNorm((1024,), eps=1e-05, elementwise_affine=True)\r\n        (fc1): Linear(in_features=1024, out_features=4096, bias=True)\r\n        (fc2): Linear(in_features=4096, out_features=1024, bias=True)\r\n        (final_layer_norm): LayerNorm((1024,), eps=1e-05, elementwise_affine=True)\r\n      )\r\n      (1): TransformerDecoderLayer(\r\n        (dropout_module): FairseqDropout()\r\n        (self_attn): MultiheadAttention(\r\n          (dropout_module): FairseqDropout()\r\n          (k_proj): Linear(in_features=1024, out_features=1024, bias=True)\r\n          (v_proj): Linear(in_features=1024, out_features=1024, bias=True)\r\n          (q_proj): Linear(in_features=1024, out_features=1024, bias=True)\r\n          (out_proj): Linear(in_features=1024, out_features=1024, bias=True)\r\n        )\r\n        (activation_dropout_module): FairseqDropout()\r\n        (self_attn_layer_norm): LayerNorm((1024,), eps=1e-05, elementwise_affine=True)\r\n        (encoder_attn): MultiheadAttention(\r\n          (dropout_module): FairseqDropout()\r\n          (k_proj): Linear(in_features=1024, out_features=1024, bias=True)\r\n          (v_proj): Linear(in_features=1024, out_features=1024, bias=True)\r\n          (q_proj): Linear(in_features=1024, out_features=1024, bias=True)\r\n          (out_proj): Linear(in_features=1024, out_features=1024, bias=True)\r\n        )\r\n        (encoder_attn_layer_norm): LayerNorm((1024,), eps=1e-05, elementwise_affine=True)\r\n        (fc1): Linear(in_features=1024, out_features=4096, bias=True)\r\n        (fc2): Linear(in_features=4096, out_features=1024, bias=True)\r\n        (final_layer_norm): LayerNorm((1024,), eps=1e-05, elementwise_affine=True)\r\n      )\r\n      (2): TransformerDecoderLayer(\r\n        (dropout_module): FairseqDropout()\r\n        (self_attn): MultiheadAttention(\r\n          (dropout_module): FairseqDropout()\r\n          (k_proj): Linear(in_features=1024, out_features=1024, bias=True)\r\n          (v_proj): Linear(in_features=1024, out_features=1024, bias=True)\r\n          (q_proj): Linear(in_features=1024, out_features=1024, bias=True)\r\n          (out_proj): Linear(in_features=1024, out_features=1024, bias=True)\r\n        )\r\n        (activation_dropout_module): FairseqDropout()\r\n        (self_attn_layer_norm): LayerNorm((1024,), eps=1e-05, elementwise_affine=True)\r\n        (encoder_attn): MultiheadAttention(\r\n          (dropout_module): FairseqDropout()\r\n          (k_proj): Linear(in_features=1024, out_features=1024, bias=True)\r\n          (v_proj): Linear(in_features=1024, out_features=1024, bias=True)\r\n          (q_proj): Linear(in_features=1024, out_features=1024, bias=True)\r\n          (out_proj): Linear(in_features=1024, out_features=1024, bias=True)\r\n        )\r\n        (encoder_attn_layer_norm): LayerNorm((1024,), eps=1e-05, elementwise_affine=True)\r\n        (fc1): Linear(in_features=1024, out_features=4096, bias=True)\r\n        (fc2): Linear(in_features=4096, out_features=1024, bias=True)\r\n        (final_layer_norm): LayerNorm((1024,), eps=1e-05, elementwise_affine=True)\r\n      )\r\n      (3): TransformerDecoderLayer(\r\n        (dropout_module): FairseqDropout()\r\n        (self_attn): MultiheadAttention(\r\n          (dropout_module): FairseqDropout()\r\n          (k_proj): Linear(in_features=1024, out_features=1024, bias=True)\r\n          (v_proj): Linear(in_features=1024, out_features=1024, bias=True)\r\n          (q_proj): Linear(in_features=1024, out_features=1024, bias=True)\r\n          (out_proj): Linear(in_features=1024, out_features=1024, bias=True)\r\n        )\r\n        (activation_dropout_module): FairseqDropout()\r\n        (self_attn_layer_norm): LayerNorm((1024,), eps=1e-05, elementwise_affine=True)\r\n        (encoder_attn): MultiheadAttention(\r\n          (dropout_module): FairseqDropout()\r\n          (k_proj): Linear(in_features=1024, out_features=1024, bias=True)\r\n          (v_proj): Linear(in_features=1024, out_features=1024, bias=True)\r\n          (q_proj): Linear(in_features=1024, out_features=1024, bias=True)\r\n          (out_proj): Linear(in_features=1024, out_features=1024, bias=True)\r\n        )\r\n        (encoder_attn_layer_norm): LayerNorm((1024,), eps=1e-05, elementwise_affine=True)\r\n        (fc1): Linear(in_features=1024, out_features=4096, bias=True)\r\n        (fc2): Linear(in_features=4096, out_features=1024, bias=True)\r\n        (final_layer_norm): LayerNorm((1024,), eps=1e-05, elementwise_affine=True)\r\n      )\r\n      (4): TransformerDecoderLayer(\r\n        (dropout_module): FairseqDropout()\r\n        (self_attn): MultiheadAttention(\r\n          (dropout_module): FairseqDropout()\r\n          (k_proj): Linear(in_features=1024, out_features=1024, bias=True)\r\n          (v_proj): Linear(in_features=1024, out_features=1024, bias=True)\r\n          (q_proj): Linear(in_features=1024, out_features=1024, bias=True)\r\n          (out_proj): Linear(in_features=1024, out_features=1024, bias=True)\r\n        )\r\n        (activation_dropout_module): FairseqDropout()\r\n        (self_attn_layer_norm): LayerNorm((1024,), eps=1e-05, elementwise_affine=True)\r\n        (encoder_attn): MultiheadAttention(\r\n          (dropout_module): FairseqDropout()\r\n          (k_proj): Linear(in_features=1024, out_features=1024, bias=True)\r\n          (v_proj): Linear(in_features=1024, out_features=1024, bias=True)\r\n          (q_proj): Linear(in_features=1024, out_features=1024, bias=True)\r\n          (out_proj): Linear(in_features=1024, out_features=1024, bias=True)\r\n        )\r\n        (encoder_attn_layer_norm): LayerNorm((1024,), eps=1e-05, elementwise_affine=True)\r\n        (fc1): Linear(in_features=1024, out_features=4096, bias=True)\r\n        (fc2): Linear(in_features=4096, out_features=1024, bias=True)\r\n        (final_layer_norm): LayerNorm((1024,), eps=1e-05, elementwise_affine=True)\r\n      )\r\n      (5): TransformerDecoderLayer(\r\n        (dropout_module): FairseqDropout()\r\n        (self_attn): MultiheadAttention(\r\n          (dropout_module): FairseqDropout()\r\n          (k_proj): Linear(in_features=1024, out_features=1024, bias=True)\r\n          (v_proj): Linear(in_features=1024, out_features=1024, bias=True)\r\n          (q_proj): Linear(in_features=1024, out_features=1024, bias=True)\r\n          (out_proj): Linear(in_features=1024, out_features=1024, bias=True)\r\n        )\r\n        (activation_dropout_module): FairseqDropout()\r\n        (self_attn_layer_norm): LayerNorm((1024,), eps=1e-05, elementwise_affine=True)\r\n        (encoder_attn): MultiheadAttention(\r\n          (dropout_module): FairseqDropout()\r\n          (k_proj): Linear(in_features=1024, out_features=1024, bias=True)\r\n          (v_proj): Linear(in_features=1024, out_features=1024, bias=True)\r\n          (q_proj): Linear(in_features=1024, out_features=1024, bias=True)\r\n          (out_proj): Linear(in_features=1024, out_features=1024, bias=True)\r\n        )\r\n        (encoder_attn_layer_norm): LayerNorm((1024,), eps=1e-05, elementwise_affine=True)\r\n        (fc1): Linear(in_features=1024, out_features=4096, bias=True)\r\n        (fc2): Linear(in_features=4096, out_features=1024, bias=True)\r\n        (final_layer_norm): LayerNorm((1024,), eps=1e-05, elementwise_affine=True)\r\n      )\r\n    )\r\n    (output_projection): Linear(in_features=1024, out_features=84800, bias=False)\r\n  )\r\n)\r\n2021-02-04 20:05:28 | INFO | fairseq_cli.train | task: TranslationTask\r\n2021-02-04 20:05:28 | INFO | fairseq_cli.train | model: TransformerModel\r\n2021-02-04 20:05:28 | INFO | fairseq_cli.train | criterion: LabelSmoothedCrossEntropyCriterion\r\n2021-02-04 20:05:28 | INFO | fairseq_cli.train | num. model params: 263,192,576 (num. t
…
00, weight_decay=0.0, zero_sharding='none')\r\n2020-11-03 12:56:19 | INFO | fairseq.tasks.translation | [it] dictionary: 45000 types\r\n2020-11-03 12:56:19 | INFO | fairseq.tasks.translation | [en] dictionary: 45000 types\r\n2020-11-03 12:56:19 | INFO | fairseq.data.data_utils | loaded 51975 examples from: ./data-bin/valid.it-en.it\r\n2020-11-03 12:56:19 | INFO | fairseq.tasks.translation | ./data-bin valid it-en 51975 examples\r\n2020-11-03 12:56:21 | INFO | fairseq_cli.train | TransformerModel(\r\n  (encoder): TransformerEncoder(\r\n    (dropout_module): FairseqDropout()\r\n    (embed_tokens): Embedding(45000, 1024, padding_idx=1)\r\n    (embed_positions): SinusoidalPositionalEmbedding()\r\n    (layers): ModuleList(\r\n      (0): TransformerEncoderLayer(\r\n        (self_attn): MultiheadAttention(\r\n          (dropout_module): FairseqDropout()\r\n          (k_proj): Linear(in_features=1024, out_features=1024, bias=True)\r\n          (v_proj): Linear(in_features=1024, out_features=1024, bias=True)\r\n          (q_proj): Linear(in_features=1024, out_features=1024, bias=True)\r\n          (out_proj): Linear(in_features=1024, out_features=1024, bias=True)\r\n        )\r\n        (self_attn_layer_norm): LayerNorm((1024,), eps=1e-05, elementwise_affine=True)\r\n        (dropout_module): FairseqDropout()\r\n        (activation_dropout_module): FairseqDropout()\r\n        (fc1): Linear(in_features=1024, out_features=4096, bias=True)\r\n        (fc2): Linear(in_features=4096, out_features=1024, bias=True)\r\n        (final_layer_norm): LayerNorm((1024,), eps=1e-05, elementwise_affine=True)\r\n      )\r\n      (1): TransformerEncoderLayer(\r\n        (self_attn): MultiheadAttention(\r\n          (dropout_module): FairseqDropout()\r\n          (k_proj): Linear(in_features=1024, out_features=1024, bias=True)\r\n          (v_proj): Linear(in_features=1024, out_features=1024, bias=True)\r\n          (q_proj): Linear(in_features=1024, out_features=1024, bias=True)\r\n          (out_proj): Linear(in_features=1024, out_features=1024, bias=True)\r\n        )\r\n        (self_attn_layer_norm): LayerNorm((1024,), eps=1e-05, elementwise_affine=True)\r\n        (dropout_module): FairseqDropout()\r\n        (activation_dropout_module): FairseqDropout()\r\n        (fc1): Linear(in_features=1024, out_features=4096, bias=True)\r\n        (fc2): Linear(in_features=4096, out_features=1024, bias=True)\r\n        (final_layer_norm): LayerNorm((1024,), eps=1e-05, elementwise_affine=True)\r\n      )\r\n      (2): TransformerEncoderLayer(\r\n        (self_attn): MultiheadAttention(\r\n          (dropout_module): FairseqDropout()\r\n          (k_proj): Linear(in_features=1024, out_features=1024, bias=True)\r\n          (v_proj): Linear(in_features=1024, out_features=1024, bias=True)\r\n          (q_proj): Linear(in_features=1024, out_features=1024, bias=True)\r\n          (out_proj): Linear(in_features=1024, out_features=1024, bias=True)\r\n        )\r\n        (self_attn_layer_norm): LayerNorm((1024,), eps=1e-05, elementwise_affine=True)\r\n        (dropout_module): FairseqDropout()\r\n        (activation_dropout_module): FairseqDropout()\r\n        (fc1): Linear(in_features=1024, out_features=4096, bias=True)\r\n        (fc2): Linear(in_features=4096, out_features=1024, bias=True)\r\n        (final_layer_norm): LayerNorm((1024,), eps=1e-05, elementwise_affine=True)\r\n      )\r\n      (3): TransformerEncoderLayer(\r\n        (self_attn): MultiheadAttention(\r\n          (dropout_module): FairseqDropout()\r\n          (k_proj): Linear(in_features=1024, out_features=1024, bias=True)\r\n          (v_proj): Linear(in_features=1024, out_features=1024, bias=True)\r\n          (q_proj): Linear(in_features=1024, out_features=1024, bias=True)\r\n          (out_proj): Linear(in_features=1024, out_features=1024, bias=True)\r\n        )\r\n        (self_attn_layer_norm): LayerNorm((1024,), eps=1e-05, elementwise_affine=True)\r\n        (dropout_module): FairseqDropout()\r\n        (activation_dropout_module): FairseqDropout()\r\n        (fc1): Linear(in_features=1024, out_features=4096, bias=True)\r\n        (fc2): Linear(in_features=4096, out_features=1024, bias=True)\r\n        (final_layer_norm): LayerNorm((1024,), eps=1e-05, elementwise_affine=True)\r\n      )\r\n      (4): TransformerEncoderLayer(\r\n        (self_attn): MultiheadAttention(\r\n          (dropout_module): FairseqDropout()\r\n          (k_proj): Linear(in_features=1024, out_features=1024, bias=True)\r\n          (v_proj): Linear(in_features=1024, out_features=1024, bias=True)\r\n          (q_proj): Linear(in_features=1024, out_features=1024, bias=True)\r\n          (out_proj): Linear(in_features=1024, out_features=1024, bias=True)\r\n        )\r\n        (self_attn_layer_norm): LayerNorm((1024,), eps=1e-05, elementwise_affine=True)\r\n        (dropout_module): FairseqDropout()\r\n        (activation_dropout_module): FairseqDropout()\r\n        (fc1): Linear(in_features=1024, out_features=4096, bias=True)\r\n        (fc2): Linear(in_features=4096, out_features=1024, bias=True)\r\n        (final_layer_norm): LayerNorm((1024,), eps=1e-05, elementwise_affine=True)\r\n      )\r\n      (5): TransformerEncoderLayer(\r\n        (self_attn): MultiheadAttention(\r\n          (dropout_module): FairseqDropout()\r\n          (k_proj): Linear(in_features=1024, out_features=1024, bias=True)\r\n          (v_proj): Linear(in_features=1024, out_features=1024, bias=True)\r\n          (q_proj): Linear(in_features=1024, out_features=1024, bias=True)\r\n          (out_proj): Linear(in_features=1024, out_features=1024, bias=True)\r\n        )\r\n        (self_attn_layer_norm): LayerNorm((1024,), eps=1e-05, elementwise_affine=True)\r\n        (dropout_module): FairseqDropout()\r\n        (activation_dropout_module): FairseqDropout()\r\n        (fc1): Linear(in_features=1024, out_features=4096, bias=True)\r\n        (fc2): Linear(in_features=4096, out_features=1024, bias=True)\r\n        (final_layer_norm): LayerNorm((1024,), eps=1e-05, elementwise_affine=True)\r\n      )\r\n    )\r\n    (layer_norm): LayerNorm((1024,), eps=1e-05, elementwise_affine=True)\r\n  )\r\n  (decoder): TransformerDecoder(\r\n    (dropout_module): FairseqDropout()\r\n    (embed_tokens): Embedding(45000, 1024, padding_idx=1)\r\n    (embed_positions): SinusoidalPositionalEmbedding()\r\n    (layers): ModuleList(\r\n      (0): TransformerDecoderLayer(\r\n        (dropout_module): FairseqDropout()\r\n        (self_attn): MultiheadAttention(\r\n          (dropout_module): FairseqDropout()\r\n          (k_proj): Linear(in_features=1024, out_features=1024, bias=True)\r\n          (v_proj): Linear(in_features=1024, out_features=1024, bias=True)\r\n          (q_proj): Linear(in_features=1024, out_features=1024, bias=True)\r\n          (out_proj): Linear(in_features=1024, out_features=1024, bias=True)\r\n        )\r\n        (activation_dropout_module): FairseqDropout()\r\n        (self_attn_layer_norm): LayerNorm((1024,), eps=1e-05, elementwise_affine=True)\r\n        (encoder_attn): MultiheadAttention(\r\n          (dropout_module): FairseqDropout()\r\n          (k_proj): Linear(in_features=1024, out_features=1024, bias=True)\r\n          (v_proj): Linear(in_features=1024, out_features=1024, bias=True)\r\n          (q_proj): Linear(in_features=1024, out_features=1024, bias=True)\r\n          (out_proj): Linear(in_features=1024, out_features=1024, bias=True)\r\n        )\r\n        (encoder_attn_layer_norm): LayerNorm((1024,), eps=1e-05, elementwise_affine=True)\r\n        (fc1): Linear(in_features=1024, out_features=4096, bias=True)\r\n        (fc2): Linear(in_features=4096, out_features=1024, bias=True)\r\n        (final_layer_norm): LayerNorm((1024,), eps=1e-05, elementwise_affine=True)\r\n      )\r\n      (1): TransformerDecoderLayer(\r\n        (dropout_module): FairseqDropout()\r\n        (self_attn): MultiheadAttention(\r\n          (dropout_module): FairseqDropout()\r\n          (k_proj): Linear(in_features=1024, out_features=1024, bias=True)\r\n          (v_proj): Linear(in_features=1024, out_features=1024, bias=True)\r\n          (q_proj): Linear(in_features=1024, out_features=1024, bias=True)\r\n          (out_proj): Linear(in_features=1024, out_features=1024, bias=True)\r\n        )\r\n        (activation_dropout_module): FairseqDropout()\r\n        (self_attn_layer_norm): LayerNorm((1024,), eps=1e-05, elementwise_affine=True)\r\n        (encoder_attn): MultiheadAttention(\r\n          (dropout_module): FairseqDropout()\r\n          (k_proj): Linear(in_features=1024, out_features=1024, bias=True)\r\n          (v_proj): Linear(in_features=1024, out_features=1024, bias=True)\r\n          (q_proj): Linear(in_features=1024, out_features=1024, bias=True)\r\n          (out_proj): Linear(in_features=1024, out_features=1024, bias=True)\r\n        )\r\n        (encoder_attn_layer_norm): LayerNorm((1024,), eps=1e-05, elementwise_affine=True)\r\n        (fc1): Linear(in_features=1024, out_features=4096, bias=True)\r\n        (fc2): Linear(in_features=4096, out_features=1024, bias=True)\r\n        (final_layer_norm): LayerNorm((1024,), eps=1e-05, elementwise_affine=True)\r\n      )\r\n      (2): TransformerDecoderLayer(\r\n        (dropout_module): FairseqDropout()\r\n        (self_attn): MultiheadAttention(\r\n          (dropout_module): FairseqDropout()\r\n          (k_proj): Linear(in_features=1024, out_features=1024, bias=True)\r\n          (v_proj): Linear(in_features=1024, out_features=1024, bias=True)\r\n          (q_proj): Linear(in_features=1024, out_features=1024, bias=True)\r\n          (out_proj): Linear(in_features=1024, out_features=1024, bias=True)\r\n        )\r\n        (activation_dropout_module): FairseqDropout()\r\n        (self_attn_layer_norm): LayerNorm((1024,), eps=1e-05, elementwise_affine=True)\r\n        (encoder_attn): MultiheadAttention(\r\n          (dropout_module): FairseqDropout()\r\n          (k_proj): Linear(in_features=1024, out_features=1024, bias=True)\r\n          (v_proj): Linear(in_features=1024, out_features=1024, bias=True)\r\n          (q_proj): Linear(in_features=1024, out_features=1024, bias=True)\r\n          (out_proj): Linear(in_features=1024, out_features=1024, bias=True)\r\n        )\r\n        (encoder_attn_layer_norm): LayerNorm((1024,), eps=1e-05, elementwise_affine=True)\r\n        (fc1): Linear(in_features=1024, out_features=4096, bias=True)\r\n        (fc2): Linear(in_features=4096, out_features=1024, bias=True)\r\n        (final_layer_norm): LayerNorm((1024,), eps=1e-05, elementwise_affine=True)\r\n      )\r\n      (3): TransformerDecoderLayer(\r\n        (dropout_module): FairseqDropout()\r\n        (self_attn): MultiheadAttention(\r\n          (dropout_module): FairseqDropout()\r\n          (k_proj): Linear(in_features=1024, out_features=1024, bias=True)\r\n          (v_proj): Linear(in_features=1024, out_features=1024, bias=True)\r\n          (q_proj): Linear(in_features=1024, out_features=1024, bias=True)\r\n          (out_proj): Linear(in_features=1024, out_features=1024, bias=True)\r\n        )\r\n        (activation_dropout_module): FairseqDropout()\r\n        (self_attn_layer_norm): LayerNorm((1024,), eps=1e-05, elementwise_affine=True)\r\n        (encoder_attn): MultiheadAttention(\r\n          (dropout_module): FairseqDropout()\r\n          (k_proj): Linear(in_features=1024, out_features=1024, bias=True)\r\n          (v_proj): Linear(in_features=1024, out_features=1024, bias=True)\r\n          (q_proj): Linear(in_features=1024, out_features=1024, bias=True)\r\n          (out_proj): Linear(in_features=1024, out_features=1024, bias=True)\r\n        )\r\n        (encoder_attn_layer_norm): LayerNorm((1024,), eps=1e-05, elementwise_affine=True)\r\n        (fc1): Linear(in_features=1024, out_features=4096, bias=True)\r\n        (fc2): Linear(in_features=4096, out_features=1024, bias=True)\r\n        (final_layer_norm): LayerNorm((1024,), eps=1e-05, elementwise_affine=True)\r\n      )\r\n      (4): TransformerDecoderLayer(\r\n        (dropout_module): FairseqDropout()\r\n        (self_attn): MultiheadAttention(\r\n          (dropout_module): FairseqDropout()\r\n          (k_proj): Linear(in_features=1024, out_features=1024, bias=True)\r\n          (v_proj): Linear(in_features=1024, out_features=1024, bias=True)\r\n          (q_proj): Linear(in_features=1024, out_features=1024, bias=True)\r\n          (out_proj): Linear(in_features=1024, out_features=1024, bias=True)\r\n        )\r\n        (activation_dropout_module): FairseqDropout()\r\n        (self_attn_layer_norm): LayerNorm((1024,), eps=1e-05, elementwise_affine=True)\r\n        (encoder_attn): MultiheadAttention(\r\n          (dropout_module): FairseqDropout()\r\n          (k_proj): Linear(in_features=1024, out_features=1024, bias=True)\r\n          (v_proj): Linear(in_features=1024, out_features=1024, bias=True)\r\n          (q_proj): Linear(in_features=1024, out_features=1024, bias=True)\r\n          (out_proj): Linear(in_features=1024, out_features=1024, bias=True)\r\n        )\r\n        (encoder_attn_layer_norm): LayerNorm((1024,), eps=1e-05, elementwise_affine=True)\r\n        (fc1): Linear(in_features=1024, out_features=4096, bias=True)\r\n        (fc2): Linear(in_features=4096, out_features=1024, bias=True)\r\n        (final_layer_norm): LayerNorm((1024,), eps=1e-05, elementwise_affine=True)\r\n      )\r\n      (5): TransformerDecoderLayer(\r\n        (dropout_module): FairseqDropout()\r\n        (self_attn): MultiheadAttention(\r\n          (dropout_module): FairseqDropout()\r\n          (k_proj): Linear(in_features=1024, out_features=1024, bias=True)\r\n          (v_proj): Linear(in_features=1024, out_features=1024, bias=True)\r\n          (q_proj): Linear(in_features=1024, out_features=1024, bias=True)\r\n          (out_proj): Linear(in_features=1024, out_features=1024, bias=True)\r\n        )\r\n        (activation_dropout_module): FairseqDropout()\r\n        (self_attn_layer_norm): LayerNorm((1024,), eps=1e-05, elementwise_affine=True)\r\n        (encoder_attn): MultiheadAttention(\r\n          (dropout_module): FairseqDropout()\r\n          (k_proj): Linear(in_features=1024, out_features=1024, bias=True)\r\n          (v_proj): Linear(in_features=1024, out_features=1024, bias=True)\r\n          (q_proj): Linear(in_features=1024, out_features=1024, bias=True)\r\n          (out_proj): Linear(in_features=1024, out_features=1024, bias=True)\r\n        )\r\n        (encoder_attn_layer_norm): LayerNorm((1024,), eps=1e-05, elementwise_affine=True)\r\n        (fc1): Linear(in_features=1024, out_features=4096, bias=True)\r\n        (fc2): Linear(in_features=4096, out_features=1024, bias=True)\r\n        (final_layer_norm): LayerNorm((1024,), eps=1e-05, elementwise_affine=True)\r\n      )\r\n    )\r\n    (layer_norm): LayerNorm((1024,), eps=1e-05, elementwise_affine=True)\r\n    (output_projection): Linear(in_features=1024, out_features=45000, bias=False)\r\n  )\r\n)\r\n2020-11-03 12:56:21 | INFO | fairseq_cli.train | task: translation (TranslationTask)\r\n2020-11-03 12:56:21 | INFO | fairseq_cli.train | model: transformer_wmt_en_de_big_t2t (TransformerModel)\r\n2020-11-03 12:56:21 | INFO | fairseq_cli.train | criterion: label_smoothed_cross_entropy (LabelSmoothedCrossEntropyCriterion)\r\n2020-11-03
…
.tasks.translation | [src] dictionary: 48947 types\r\n2020-04-29 21:50:57 | INFO | fairseq.tasks.translation | [tgt] dictionary: 48613 types\r\n2020-04-29 21:50:57 | INFO | fairseq.data.data_utils | loaded 8204 examples from: temp/bpe/bin/valid.src-tgt.src\r\n2020-04-29 21:50:57 | INFO | fairseq.data.data_utils | loaded 8204 examples from: temp/bpe/bin/valid.src-tgt.tgt\r\n2020-04-29 21:50:57 | INFO | fairseq.tasks.translation | temp/bpe/bin valid src-tgt 8204 examples\r\n2020-04-29 21:50:58 | INFO | fairseq_cli.train | TransformerModel(\r\n  (encoder): TransformerEncoder(\r\n    (embed_tokens): Embedding(48947, 256, padding_idx=1)\r\n    (embed_positions): SinusoidalPositionalEmbedding()\r\n    (layers): ModuleList(\r\n      (0): TransformerEncoderLayer(\r\n        (self_attn): MultiheadAttention(\r\n          (k_proj): Linear(in_features=256, out_features=256, bias=True)\r\n          (v_proj): Linear(in_features=256, out_features=256, bias=True)\r\n          (q_proj): Linear(in_features=256, out_features=256, bias=True)\r\n          (out_proj): Linear(in_features=256, out_features=256, bias=True)\r\n        )\r\n        (self_attn_layer_norm): LayerNorm((256,), eps=1e-05, elementwise_affine=True)\r\n        (fc1): Linear(in_features=256, out_features=256, bias=True)\r\n        (fc2): Linear(in_features=256, out_features=256, bias=True)\r\n        (final_layer_norm): LayerNorm((256,), eps=1e-05, elementwise_affine=True)\r\n      )\r\n      (1): TransformerEncoderLayer(\r\n        (self_attn): MultiheadAttention(\r\n          (k_proj): Linear(in_features=256, out_features=256, bias=True)\r\n          (v_proj): Linear(in_features=256, out_features=256, bias=True)\r\n          (q_proj): Linear(in_features=256, out_features=256, bias=True)\r\n          (out_proj): Linear(in_features=256, out_features=256, bias=True)\r\n        )\r\n        (self_attn_layer_norm): LayerNorm((256,), eps=1e-05, elementwise_affine=True)\r\n        (fc1): Linear(in_features=256, out_features=256, bias=True)\r\n        (fc2): Linear(in_features=256, out_features=256, bias=True)\r\n        (final_layer_norm): LayerNorm((256,), eps=1e-05, elementwise_affine=True)\r\n      )\r\n      (2): TransformerEncoderLayer(\r\n        (self_attn): MultiheadAttention(\r\n          (k_proj): Linear(in_features=256, out_features=256, bias=True)\r\n          (v_proj): Linear(in_features=256, out_features=256, bias=True)\r\n          (q_proj): Linear(in_features=256, out_features=256, bias=True)\r\n          (out_proj): Linear(in_features=256, out_features=256, bias=True)\r\n        )\r\n        (self_attn_layer_norm): LayerNorm((256,), eps=1e-05, elementwise_affine=True)\r\n        (fc1): Linear(in_features=256, out_features=256, bias=True)\r\n        (fc2): Linear(in_features=256, out_features=256, bias=True)\r\n        (final_layer_norm): LayerNorm((256,), eps=1e-05, elementwise_affine=True)\r\n      )\r\n      (3): TransformerEncoderLayer(\r\n        (self_attn): MultiheadAttention(\r\n          (k_proj): Linear(in_features=256, out_features=256, bias=True)\r\n          (v_proj): Linear(in_features=256, out_features=256, bias=True)\r\n          (q_proj): Linear(in_features=256, out_features=256, bias=True)\r\n          (out_proj): Linear(in_features=256, out_features=256, bias=True)\r\n        )\r\n        (self_attn_layer_norm): LayerNorm((256,), eps=1e-05, elementwise_affine=True)\r\n        (fc1): Linear(in_features=256, out_features=256, bias=True)\r\n        (fc2): Linear(in_features=256, out_features=256, bias=True)\r\n        (final_layer_norm): LayerNorm((256,), eps=1e-05, elementwise_affine=True)\r\n      )\r\n    )\r\n    (layer_norm): LayerNorm((256,), eps=1e-05, elementwise_affine=True)\r\n  )\r\n  (decoder): TransformerDecoder(\r\n    (embed_tokens): Embedding(48613, 256, padding_idx=1)\r\n    (embed_positions): SinusoidalPositionalEmbedding()\r\n    (layers): ModuleList(\r\n      (0): TransformerDecoderLayer(\r\n        (self_attn): MultiheadAttention(\r\n          (k_proj): Linear(in_features=256, out_features=256, bias=True)\r\n          (v_proj): Linear(in_features=256, out_features=256, bias=True)\r\n          (q_proj): Linear(in_features=256, out_features=256, bias=True)\r\n          (out_proj): Linear(in_features=256, out_features=256, bias=True)\r\n        )\r\n        (self_attn_layer_norm): LayerNorm((256,), eps=1e-05, elementwise_affine=True)\r\n        (encoder_attn): MultiheadAttention(\r\n          (k_proj): Linear(in_features=256, out_features=256, bias=True)\r\n          (v_proj): Linear(in_features=256, out_features=256, bias=True)\r\n          (q_proj): Linear(in_features=256, out_features=256, bias=True)\r\n          (out_proj): Linear(in_features=256, out_features=256, bias=True)\r\n        )\r\n        (encoder_attn_layer_norm): LayerNorm((256,), eps=1e-05, elementwise_affine=True)\r\n        (fc1): Linear(in_features=256, out_features=256, bias=True)\r\n        (fc2): Linear(in_features=256, out_features=256, bias=True)\r\n        (final_layer_norm): LayerNorm((256,), eps=1e-05, elementwise_affine=True)\r\n      )\r\n      (1): TransformerDecoderLayer(\r\n        (self_attn): MultiheadAttention(\r\n          (k_proj): Linear(in_features=256, out_features=256, bias=True)\r\n          (v_proj): Linear(in_features=256, out_features=256, bias=True)\r\n          (q_proj): Linear(in_features=256, out_features=256, bias=True)\r\n          (out_proj): Linear(in_features=256, out_features=256, bias=True)\r\n        )\r\n        (self_attn_layer_norm): LayerNorm((256,), eps=1e-05, elementwise_affine=True)\r\n        (encoder_attn): MultiheadAttention(\r\n          (k_proj): Linear(in_features=256, out_features=256, bias=True)\r\n          (v_proj): Linear(in_features=256, out_features=256, bias=True)\r\n          (q_proj): Linear(in_features=256, out_features=256, bias=True)\r\n          (out_proj): Linear(in_features=256, out_features=256, bias=True)\r\n        )\r\n        (encoder_attn_layer_norm): LayerNorm((256,), eps=1e-05, elementwise_affine=True)\r\n        (fc1): Linear(in_features=256, out_features=256, bias=True)\r\n        (fc2): Linear(in_features=256, out_features=256, bias=True)\r\n        (final_layer_norm): LayerNorm((256,), eps=1e-05, elementwise_affine=True)\r\n      )\r\n      (2): TransformerDecoderLayer(\r\n        (self_attn): MultiheadAttention(\r\n          (k_proj): Linear(in_features=256, out_features=256, bias=True)\r\n          (v_proj): Linear(in_features=256, out_features=256, bias=True)\r\n          (q_proj): Linear(in_features=256, out_features=256, bias=True)\r\n          (out_proj): Linear(in_features=256, out_features=256, bias=True)\r\n        )\r\n        (self_attn_layer_norm): LayerNorm((256,), eps=1e-05, elementwise_affine=True)\r\n        (encoder_attn): MultiheadAttention(\r\n          (k_proj): Linear(in_features=256, out_features=256, bias=True)\r\n          (v_proj): Linear(in_features=256, out_features=256, bias=True)\r\n          (q_proj): Linear(in_features=256, out_features=256, bias=True)\r\n          (out_proj): Linear(in_features=256, out_features=256, bias=True)\r\n        )\r\n        (encoder_attn_layer_norm): LayerNorm((256,), eps=1e-05, elementwise_affine=True)\r\n        (fc1): Linear(in_features=256, out_features=256, bias=True)\r\n        (fc2): Linear(in_features=256, out_features=256, bias=True)\r\n        (final_layer_norm): LayerNorm((256,), eps=1e-05, elementwise_affine=True)\r\n      )\r\n      (3): TransformerDecoderLayer(\r\n        (self_attn): MultiheadAttention(\r\n          (k_proj): Linear(in_features=256, out_features=256, bias=True)\r\n          (v_proj): Linear(in_features=256, out_features=256, bias=True)\r\n          (q_proj): Linear(in_features=256, out_features=256, bias=True)\r\n          (out_proj): Linear(in_features=256, out_features=256, bias=True)\r\n        )\r\n        (self_attn_layer_norm): LayerNorm((256,), eps=1e-05, elementwise_affine=True)\r\n        (encoder_attn): MultiheadAttention(\r\n          (k_proj): Linear(in_features=256, out_features=256, bias=True)\r\n          (v_proj): Linear(in_features=256, out_features=256, bias=True)\r\n          (q_proj): Linear(in_features=256, out_features=256, bias=True)\r\n          (out_proj): Linear(in_features=256, out_features=256, bias=True)\r\n        )\r\n        (encoder_attn_layer_norm): LayerNorm((256,), eps=1e-05, elementwise_affine=True)\r\n        (fc1): Linear(in_features=256, out_features=256, bias=True)\r\n        (fc2): Linear(in_features=256, out_features=256, bias=True)\r\n        (final_layer_norm): LayerNorm((256,), eps=1e-05, elementwise_affine=True)\r\n      )\r\n    )\r\n    (layer_norm): LayerNorm((256,), eps=1e-05, elementwise_affine=True)\r\n    (output_projection): Linear(in_features=256, out_features=48613, bias=False)\r\n  )\r\n)\r\n2020-04-29 21:50:58 | INFO | fairseq_cli.train | model transformer, criterion CrossEntropyCriterion\r\n2020-04-29 21:50:58 | INFO | fairseq_cli.train | num. model params: 41642240 (num. trained: 41642240)\r\n2020-04-29 21:50:58 | INFO | fairseq_cli.train | training on 2 GPUs\r\n2020-04-29 21:50:58 | INFO | fairseq_cli.train | max toke
…
.tasks.translation | [src] dictionary: 48947 types\r\n2020-04-29 22:29:29 | INFO | fairseq.tasks.translation | [tgt] dictionary: 48613 types\r\n2020-04-29 22:29:29 | INFO | fairseq.data.data_utils | loaded 8204 examples from: temp/bpe/bin/valid.src-tgt.src\r\n2020-04-29 22:29:29 | INFO | fairseq.data.data_utils | loaded 8204 examples from: temp/bpe/bin/valid.src-tgt.tgt\r\n2020-04-29 22:29:29 | INFO | fairseq.tasks.translation | temp/bpe/bin valid src-tgt 8204 examples\r\n2020-04-29 22:29:29 | INFO | fairseq_cli.train | TransformerModel(\r\n  (encoder): TransformerEncoder(\r\n    (embed_tokens): Embedding(48947, 256, padding_idx=1)\r\n    (embed_positions): SinusoidalPositionalEmbedding()\r\n    (layers): ModuleList(\r\n      (0): TransformerEncoderLayer(\r\n        (self_attn): MultiheadAttention(\r\n          (k_proj): Linear(in_features=256, out_features=256, bias=True)\r\n          (v_proj): Linear(in_features=256, out_features=256, bias=True)\r\n          (q_proj): Linear(in_features=256, out_features=256, bias=True)\r\n          (out_proj): Linear(in_features=256, out_features=256, bias=True)\r\n        )\r\n        (self_attn_layer_norm): LayerNorm((256,), eps=1e-05, elementwise_affine=True)\r\n        (fc1): Linear(in_features=256, out_features=256, bias=True)\r\n        (fc2): Linear(in_features=256, out_features=256, bias=True)\r\n        (final_layer_norm): LayerNorm((256,), eps=1e-05, elementwise_affine=True)\r\n      )\r\n      (1): TransformerEncoderLayer(\r\n        (self_attn): MultiheadAttention(\r\n          (k_proj): Linear(in_features=256, out_features=256, bias=True)\r\n          (v_proj): Linear(in_features=256, out_features=256, bias=True)\r\n          (q_proj): Linear(in_features=256, out_features=256, bias=True)\r\n          (out_proj): Linear(in_features=256, out_features=256, bias=True)\r\n        )\r\n        (self_attn_layer_norm): LayerNorm((256,), eps=1e-05, elementwise_affine=True)\r\n        (fc1): Linear(in_features=256, out_features=256, bias=True)\r\n        (fc2): Linear(in_features=256, out_features=256, bias=True)\r\n        (final_layer_norm): LayerNorm((256,), eps=1e-05, elementwise_affine=True)\r\n      )\r\n      (2): TransformerEncoderLayer(\r\n        (self_attn): MultiheadAttention(\r\n          (k_proj): Linear(in_features=256, out_features=256, bias=True)\r\n          (v_proj): Linear(in_features=256, out_features=256, bias=True)\r\n          (q_proj): Linear(in_features=256, out_features=256, bias=True)\r\n          (out_proj): Linear(in_features=256, out_features=256, bias=True)\r\n        )\r\n        (self_attn_layer_norm): LayerNorm((256,), eps=1e-05, elementwise_affine=True)\r\n        (fc1): Linear(in_features=256, out_features=256, bias=True)\r\n        (fc2): Linear(in_features=256, out_features=256, bias=True)\r\n        (final_layer_norm): LayerNorm((256,), eps=1e-05, elementwise_affine=True)\r\n      )\r\n      (3): TransformerEncoderLayer(\r\n        (self_attn): MultiheadAttention(\r\n          (k_proj): Linear(in_features=256, out_features=256, bias=True)\r\n          (v_proj): Linear(in_features=256, out_features=256, bias=True)\r\n          (q_proj): Linear(in_features=256, out_features=256, bias=True)\r\n          (out_proj): Linear(in_features=256, out_features=256, bias=True)\r\n        )\r\n        (self_attn_layer_norm): LayerNorm((256,), eps=1e-05, elementwise_affine=True)\r\n        (fc1): Linear(in_features=256, out_features=256, bias=True)\r\n        (fc2): Linear(in_features=256, out_features=256, bias=True)\r\n        (final_layer_norm): LayerNorm((256,), eps=1e-05, elementwise_affine=True)\r\n      )\r\n    )\r\n    (layer_norm): LayerNorm((256,), eps=1e-05, elementwise_affine=True)\r\n  )\r\n  (decoder): TransformerDecoder(\r\n    (embed_tokens): Embedding(48613, 256, padding_idx=1)\r\n    (embed_positions): SinusoidalPositionalEmbedding()\r\n    (layers): ModuleList(\r\n      (0): TransformerDecoderLayer(\r\n        (self_attn): MultiheadAttention(\r\n          (k_proj): Linear(in_features=256, out_features=256, bias=True)\r\n          (v_proj): Linear(in_features=256, out_features=256, bias=True)\r\n          (q_proj): Linear(in_features=256, out_features=256, bias=True)\r\n          (out_proj): Linear(in_features=256, out_features=256, bias=True)\r\n        )\r\n        (self_attn_layer_norm): LayerNorm((256,), eps=1e-05, elementwise_affine=True)\r\n        (encoder_attn): MultiheadAttention(\r\n          (k_proj): Linear(in_features=256, out_features=256, bias=True)\r\n          (v_proj): Linear(in_features=256, out_features=256, bias=True)\r\n          (q_proj): Linear(in_features=256, out_features=256, bias=True)\r\n          (out_proj): Linear(in_features=256, out_features=256, bias=True)\r\n        )\r\n        (encoder_attn_layer_norm): LayerNorm((256,), eps=1e-05, elementwise_affine=True)\r\n        (fc1): Linear(in_features=256, out_features=256, bias=True)\r\n        (fc2): Linear(in_features=256, out_features=256, bias=True)\r\n        (final_layer_norm): LayerNorm((256,), eps=1e-05, elementwise_affine=True)\r\n      )\r\n      (1): TransformerDecoderLayer(\r\n        (self_attn): MultiheadAttention(\r\n          (k_proj): Linear(in_features=256, out_features=256, bias=True)\r\n          (v_proj): Linear(in_features=256, out_features=256, bias=True)\r\n          (q_proj): Linear(in_features=256, out_features=256, bias=True)\r\n          (out_proj): Linear(in_features=256, out_features=256, bias=True)\r\n        )\r\n        (self_attn_layer_norm): LayerNorm((256,), eps=1e-05, elementwise_affine=True)\r\n        (encoder_attn): MultiheadAttention(\r\n          (k_proj): Linear(in_features=256, out_features=256, bias=True)\r\n          (v_proj): Linear(in_features=256, out_features=256, bias=True)\r\n          (q_proj): Linear(in_features=256, out_features=256, bias=True)\r\n          (out_proj): Linear(in_features=256, out_features=256, bias=True)\r\n        )\r\n        (encoder_attn_layer_norm): LayerNorm((256,), eps=1e-05, elementwise_affine=True)\r\n        (fc1): Linear(in_features=256, out_features=256, bias=True)\r\n        (fc2): Linear(in_features=256, out_features=256, bias=True)\r\n        (final_layer_norm): LayerNorm((256,), eps=1e-05, elementwise_affine=True)\r\n      )\r\n      (2): TransformerDecoderLayer(\r\n        (self_attn): MultiheadAttention(\r\n          (k_proj): Linear(in_features=256, out_features=256, bias=True)\r\n          (v_proj): Linear(in_features=256, out_features=256, bias=True)\r\n          (q_proj): Linear(in_features=256, out_features=256, bias=True)\r\n          (out_proj): Linear(in_features=256, out_features=256, bias=True)\r\n        )\r\n        (self_attn_layer_norm): LayerNorm((256,), eps=1e-05, elementwise_affine=True)\r\n        (encoder_attn): MultiheadAttention(\r\n          (k_proj): Linear(in_features=256, out_features=256, bias=True)\r\n          (v_proj): Linear(in_features=256, out_features=256, bias=True)\r\n          (q_proj): Linear(in_features=256, out_features=256, bias=True)\r\n          (out_proj): Linear(in_features=256, out_features=256, bias=True)\r\n        )\r\n        (encoder_attn_layer_norm): LayerNorm((256,), eps=1e-05, elementwise_affine=True)\r\n        (fc1): Linear(in_features=256, out_features=256, bias=True)\r\n        (fc2): Linear(in_features=256, out_features=256, bias=True)\r\n        (final_layer_norm): LayerNorm((256,), eps=1e-05, elementwise_affine=True)\r\n      )\r\n      (3): TransformerDecoderLayer(\r\n        (self_attn): MultiheadAttention(\r\n          (k_proj): Linear(in_features=256, out_features=256, bias=True)\r\n          (v_proj): Linear(in_features=256, out_features=256, bias=True)\r\n          (q_proj): Linear(in_features=256, out_features=256, bias=True)\r\n          (out_proj): Linear(in_features=256, out_features=256, bias=True)\r\n        )\r\n        (self_attn_layer_norm): LayerNorm((256,), eps=1e-05, elementwise_affine=True)\r\n        (encoder_attn): MultiheadAttention(\r\n          (k_proj): Linear(in_features=256, out_features=256, bias=True)\r\n          (v_proj): Linear(in_features=256, out_features=256, bias=True)\r\n          (q_proj): Linear(in_features=256, out_features=256, bias=True)\r\n          (out_proj): Linear(in_features=256, out_features=256, bias=True)\r\n        )\r\n        (encoder_attn_layer_norm): LayerNorm((256,), eps=1e-05, elementwise_affine=True)\r\n        (fc1): Linear(in_features=256, out_features=256, bias=True)\r\n        (fc2): Linear(in_features=256, out_features=256, bias=True)\r\n        (final_layer_norm): LayerNorm((256,), eps=1e-05, elementwise_affine=True)\r\n      )\r\n    )\r\n    (layer_norm): LayerNorm((256,), eps=1e-05, elementwise_affine=True)\r\n    (output_projection): Linear(in_features=256, out_features=48613, bias=False)\r\n  )\r\n)\r\n2020-04-29 22:29:29 | INFO | fairseq_cli.train | model transformer, criterion CrossEntropyCriterion\r\n2020-04-29 22:29:29 | INFO | fairseq_cli.train | num. model params: 41642240 (num. trained: 41642240)\r\n2020-04-29 22:29:29 | INFO | fairseq_cli.train | training on 2 GPUs\r\n2020-04-29 22:29:29 | INFO | fairseq_cli.train | max toke
…
.tasks.translation | [src] dictionary: 48947 types\r\n2020-04-29 22:53:40 | INFO | fairseq.tasks.translation | [tgt] dictionary: 48613 types\r\n2020-04-29 22:53:40 | INFO | fairseq.data.data_utils | loaded 8204 examples from: temp/bpe/bin/valid.src-tgt.src\r\n2020-04-29 22:53:40 | INFO | fairseq.data.data_utils | loaded 8204 examples from: temp/bpe/bin/valid.src-tgt.tgt\r\n2020-04-29 22:53:40 | INFO | fairseq.tasks.translation | temp/bpe/bin valid src-tgt 8204 examples\r\n2020-04-29 22:53:40 | INFO | fairseq_cli.train | TransformerModel(\r\n  (encoder): TransformerEncoder(\r\n    (embed_tokens): Embedding(48947, 256, padding_idx=1)\r\n    (embed_positions): SinusoidalPositionalEmbedding()\r\n    (layers): ModuleList(\r\n      (0): TransformerEncoderLayer(\r\n        (self_attn): MultiheadAttention(\r\n          (k_proj): Linear(in_features=256, out_features=256, bias=True)\r\n          (v_proj): Linear(in_features=256, out_features=256, bias=True)\r\n          (q_proj): Linear(in_features=256, out_features=256, bias=True)\r\n          (out_proj): Linear(in_features=256, out_features=256, bias=True)\r\n        )\r\n        (self_attn_layer_norm): LayerNorm((256,), eps=1e-05, elementwise_affine=True)\r\n        (fc1): Linear(in_features=256, out_features=256, bias=True)\r\n        (fc2): Linear(in_features=256, out_features=256, bias=True)\r\n        (final_layer_norm): LayerNorm((256,), eps=1e-05, elementwise_affine=True)\r\n      )\r\n      (1): TransformerEncoderLayer(\r\n        (self_attn): MultiheadAttention(\r\n          (k_proj): Linear(in_features=256, out_features=256, bias=True)\r\n          (v_proj): Linear(in_features=256, out_features=256, bias=True)\r\n          (q_proj): Linear(in_features=256, out_features=256, bias=True)\r\n          (out_proj): Linear(in_features=256, out_features=256, bias=True)\r\n        )\r\n        (self_attn_layer_norm): LayerNorm((256,), eps=1e-05, elementwise_affine=True)\r\n        (fc1): Linear(in_features=256, out_features=256, bias=True)\r\n        (fc2): Linear(in_features=256, out_features=256, bias=True)\r\n        (final_layer_norm): LayerNorm((256,), eps=1e-05, elementwise_affine=True)\r\n      )\r\n      (2): TransformerEncoderLayer(\r\n        (self_attn): MultiheadAttention(\r\n          (k_proj): Linear(in_features=256, out_features=256, bias=True)\r\n          (v_proj): Linear(in_features=256, out_features=256, bias=True)\r\n          (q_proj): Linear(in_features=256, out_features=256, bias=True)\r\n          (out_proj): Linear(in_features=256, out_features=256, bias=True)\r\n        )\r\n        (self_attn_layer_norm): LayerNorm((256,), eps=1e-05, elementwise_affine=True)\r\n        (fc1): Linear(in_features=256, out_features=256, bias=True)\r\n        (fc2): Linear(in_features=256, out_features=256, bias=True)\r\n        (final_layer_norm): LayerNorm((256,), eps=1e-05, elementwise_affine=True)\r\n      )\r\n      (3): TransformerEncoderLayer(\r\n        (self_attn): MultiheadAttention(\r\n          (k_proj): Linear(in_features=256, out_features=256, bias=True)\r\n          (v_proj): Linear(in_features=256, out_features=256, bias=True)\r\n          (q_proj): Linear(in_features=256, out_features=256, bias=True)\r\n          (out_proj): Linear(in_features=256, out_features=256, bias=True)\r\n        )\r\n        (self_attn_layer_norm): LayerNorm((256,), eps=1e-05, elementwise_affine=True)\r\n        (fc1): Linear(in_features=256, out_features=256, bias=True)\r\n        (fc2): Linear(in_features=256, out_features=256, bias=True)\r\n        (final_layer_norm): LayerNorm((256,), eps=1e-05, elementwise_affine=True)\r\n      )\r\n    )\r\n  )\r\n  (decoder): TransformerDecoder(\r\n    (embed_tokens): Embedding(48613, 256, padding_idx=1)\r\n    (embed_positions): SinusoidalPositionalEmbedding()\r\n    (layers): ModuleList(\r\n      (0): TransformerDecoderLayer(\r\n        (self_attn): MultiheadAttention(\r\n          (k_proj): Linear(in_features=256, out_features=256, bias=True)\r\n          (v_proj): Linear(in_features=256, out_features=256, bias=True)\r\n          (q_proj): Linear(in_features=256, out_features=256, bias=True)\r\n          (out_proj): Linear(in_features=256, out_features=256, bias=True)\r\n        )\r\n        (self_attn_layer_norm): LayerNorm((256,), eps=1e-05, elementwise_affine=True)\r\n        (encoder_attn): MultiheadAttention(\r\n          (k_proj): Linear(in_features=256, out_features=256, bias=True)\r\n          (v_proj): Linear(in_features=256, out_features=256, bias=True)\r\n          (q_proj): Linear(in_features=256, out_features=256, bias=True)\r\n          (out_proj): Linear(in_features=256, out_features=256, bias=True)\r\n        )\r\n        (encoder_attn_layer_norm): LayerNorm((256,), eps=1e-05, elementwise_affine=True)\r\n        (fc1): Linear(in_features=256, out_features=256, bias=True)\r\n        (fc2): Linear(in_features=256, out_features=256, bias=True)\r\n        (final_layer_norm): LayerNorm((256,), eps=1e-05, elementwise_affine=True)\r\n      )\r\n      (1): TransformerDecoderLayer(\r\n        (self_attn): MultiheadAttention(\r\n          (k_proj): Linear(in_features=256, out_features=256, bias=True)\r\n          (v_proj): Linear(in_features=256, out_features=256, bias=True)\r\n          (q_proj): Linear(in_features=256, out_features=256, bias=True)\r\n          (out_proj): Linear(in_features=256, out_features=256, bias=True)\r\n        )\r\n        (self_attn_layer_norm): LayerNorm((256,), eps=1e-05, elementwise_affine=True)\r\n        (encoder_attn): MultiheadAttention(\r\n          (k_proj): Linear(in_features=256, out_features=256, bias=True)\r\n          (v_proj): Linear(in_features=256, out_features=256, bias=True)\r\n          (q_proj): Linear(in_features=256, out_features=256, bias=True)\r\n          (out_proj): Linear(in_features=256, out_features=256, bias=True)\r\n        )\r\n        (encoder_attn_layer_norm): LayerNorm((256,), eps=1e-05, elementwise_affine=True)\r\n        (fc1): Linear(in_features=256, out_features=256, bias=True)\r\n        (fc2): Linear(in_features=256, out_features=256, bias=True)\r\n        (final_layer_norm): LayerNorm((256,), eps=1e-05, elementwise_affine=True)\r\n      )\r\n      (2): TransformerDecoderLayer(\r\n        (self_attn): MultiheadAttention(\r\n          (k_proj): Linear(in_features=256, out_features=256, bias=True)\r\n          (v_proj): Linear(in_features=256, out_features=256, bias=True)\r\n          (q_proj): Linear(in_features=256, out_features=256, bias=True)\r\n          (out_proj): Linear(in_features=256, out_features=256, bias=True)\r\n        )\r\n        (self_attn_layer_norm): LayerNorm((256,), eps=1e-05, elementwise_affine=True)\r\n        (encoder_attn): MultiheadAttention(\r\n          (k_proj): Linear(in_features=256, out_features=256, bias=True)\r\n          (v_proj): Linear(in_features=256, out_features=256, bias=True)\r\n          (q_proj): Linear(in_features=256, out_features=256, bias=True)\r\n          (out_proj): Linear(in_features=256, out_features=256, bias=True)\r\n        )\r\n        (encoder_attn_layer_norm): LayerNorm((256,), eps=1e-05, elementwise_affine=True)\r\n        (fc1): Linear(in_features=256, out_features=256, bias=True)\r\n        (fc2): Linear(in_features=256, out_features=256, bias=True)\r\n        (final_layer_norm): LayerNorm((256,), eps=1e-05, elementwise_affine=True)\r\n      )\r\n      (3): TransformerDecoderLayer(\r\n        (self_attn): MultiheadAttention(\r\n          (k_proj): Linear(in_features=256, out_features=256, bias=True)\r\n          (v_proj): Linear(in_features=256, out_features=256, bias=True)\r\n          (q_proj): Linear(in_features=256, out_features=256, bias=True)\r\n          (out_proj): Linear(in_features=256, out_features=256, bias=True)\r\n        )\r\n        (self_attn_layer_norm): LayerNorm((256,), eps=1e-05, elementwise_affine=True)\r\n        (encoder_attn): MultiheadAttention(\r\n          (k_proj): Linear(in_features=256, out_features=256, bias=True)\r\n          (v_proj): Linear(in_features=256, out_features=256, bias=True)\r\n          (q_proj): Linear(in_features=256, out_features=256, bias=True)\r\n          (out_proj): Linear(in_features=256, out_features=256, bias=True)\r\n        )\r\n        (encoder_attn_layer_norm): LayerNorm((256,), eps=1e-05, elementwise_affine=True)\r\n        (fc1): Linear(in_features=256, out_features=256, bias=True)\r\n        (fc2): Linear(in_features=256, out_features=256, bias=True)\r\n        (final_layer_norm): LayerNorm((256,), eps=1e-05, elementwise_affine=True)\r\n      )\r\n    )\r\n    (output_projection): Linear(in_features=256, out_features=48613, bias=False)\r\n  )\r\n)\r\n2020-04-29 22:53:40 | INFO | fairseq_cli.train | model transformer, criterion CrossEntropyCriterion\r\n2020-04-29 22:53:40 | INFO | fairseq_cli.train | num. model params: 41641216 (num. trained: 41641216)\r\n2020-04-29 22:53:41 | INFO | fairseq_cli.train | training on 2 GPUs\r\n2020-04-29 22:53:41 | INFO | fairseq_cli.train | max toke
…
