…
SequenceTagger predicts: Dictionary with 17 tags: O, S-LOC, B-LOC, E-LOC, I-LOC, S-ORG, B-ORG, E-ORG, I-ORG, S-PER, B-PER, E-PER, I-PER, S-MISC, B-MISC, E-MISC, I-MISC\r\n2022-06-30 09:41:59,981 tensorboard logging path is experiments/bug\r\n2022-06-30 09:41:59,982 ----------------------------------------------------------------------------------------------------\r\n2022-06-30 09:41:59,982 Model: \"SequenceTagger(\r\n  (embeddings): StackedEmbeddings(\r\n    (list_embedding_0): FlairEmbeddings(\r\n      (lm): LanguageModel(\r\n        (drop): Dropout(p=0.05, inplace=False)\r\n        (encoder): Embedding(300, 100)\r\n        (rnn): LSTM(100, 2048)\r\n        (decoder): Linear(in_features=2048, out_features=300, bias=True)\r\n      )\r\n    )\r\n    (list_embedding_1): FlairEmbeddings(\r\n      (lm): LanguageModel(\r\n        (drop): Dropout(p=0.05, inplace=False)\r\n        (encoder): Embedding(300, 100)\r\n        (rnn): LSTM(100, 2048)\r\n        (decoder): Linear(in_features=2048, out_features=300, bias=True)\r\n      )\r\n    )\r\n  )\r\n  (word_dropout): WordDropout(p=0.05)\r\n  (locked_dropout): LockedDropout(p=0.5)\r\n  (embedding2nn): Linear(in_features=4096, out_features=4096, bias=True)\r\n  (rnn): LSTM(4096, 256, batch_first=True, bidirectional=True)\r\n  (linear): Linear(in_features=512, out_features=19, bias=True)\r\n  (loss_function): ViterbiLoss()\r\n  (crf): CRF()\r\n)\"\r\n2022-06-30 09:41:59,983 ----------------------------------------------------------------------------------------------------\r\n2022-06-30 09:41:59,983 Corpus: \"Corpus: 749 train + 173 dev + 184 test sentences\"\r\n2022-06-30 09:41:59,983 ---------------------------------------------------
…
ard-0.4.1.pt\r\n2022-06-20 09:30:37,663 removing temp file /tmp/tmpil1w_c93\r\n2022-06-20 09:30:37,940 SequenceTagger predicts: Dictionary with 21 tags: <unk>, I-NP, B-NP, B-PP, B-VP, I-VP, B-ADVP, B-SBAR, B-ADJP, -X-, B-PRT, I-ADJP, I-ADVP, I-PP, B-INTJ, I-CONJP, B-LST, B-CONJP, I-SBAR, I-LST, I-INTJ\r\n2022-06-20 09:30:38,153 ----------------------------------------------------------------------------------------------------\r\n2022-06-20 09:30:38,154 Model: \"SequenceTagger(\r\n  (embeddings): StackedEmbeddings(\r\n    (list_embedding_0): WordEmbeddings(\r\n      'glove'\r\n      (embedding): Embedding(400001, 100)\r\n    )\r\n    (list_embedding_1): FlairEmbeddings(\r\n      (lm): LanguageModel(\r\n        (drop): Dropout(p=0.05, inplace=False)\r\n        (encoder): Embedding(300, 100)\r\n        (rnn): LSTM(100, 2048)\r\n        (decoder): Linear(in_features=2048, out_features=300, bias=True)\r\n      )\r\n    )\r\n    (list_embedding_2): FlairEmbeddings(\r\n      (lm): LanguageModel(\r\n        (drop): Dropout(p=0.05, inplace=False)\r\n        (encoder): Embedding(300, 100)\r\n        (rnn): LSTM(100, 2048)\r\n        (decoder): Linear(in_features=2048, out_features=300, bias=True)\r\n      )\r\n    )\r\n  )\r\n  (word_dropout): WordDropout(p=0.05)\r\n  (locked_dropout): LockedDropout(p=0.5)\r\n  (embedding2nn): Linear(in_features=4196, out_features=4196, bias=True)\r\n  (rnn): LSTM(4196, 256, batch_first=True, bidirectional=True)\r\n  (linear): Linear(in_features=512, out_features=23, bias=True)\r\n  (loss_function): ViterbiLoss()\r\n  (crf): CRF()\r\n)\"\r\n2022-06-20 09:30:38,154 ----------------------------------------------------------------------------------------------------\r\n2022-06-20 09:30:38,154 Corpus: \"Corpus: 14987 train + 3466 dev + 3684 test sentences\"\r\n2022-06-20 09:30:38,155 -----------------------------------------------
…
588| 131796811/131796811 [00:08<00:00, 16242622.50B/s]2021-01-25 10:21:49,763 copying /tmp/tmplcvwbl5h to cache at /root/.flair/embeddings/lm-ar-opus-large-backward-v0.1.pt\r\n\r\n2021-01-25 10:21:49,912 removing temp file /tmp/tmplcvwbl5h\r\n2021-01-25 10:21:56,225 ----------------------------------------------------------------------------------------------------\r\n2021-01-25 10:21:56,229 Model: \"SequenceTagger(\r\n  (embeddings): StackedEmbeddings(\r\n    (list_embedding_0): BertEmbeddings(\r\n      (model): BertModel(\r\n        (embeddings): BertEmbeddings(\r\n          (word_embeddings): Embedding(64000, 768, padding_idx=0)\r\n          (position_embeddings): Embedding(512, 768)\r\n          (token_type_embeddings): Embedding(2, 768)\r\n          (LayerNorm): LayerNorm((768,), eps=1e-12, elementwise_affine=True)\r\n          (dropout): Dropout(p=0.1, inplace=False)\r\n        )\r\n        (encoder): BertEncoder(\r\n          (layer): ModuleList(\r\n            (0): BertLayer(\r\n              (attention): BertAttention(\r\n                (self): BertSelfAttention(\r\n                  (query): Linear(in_features=768, out_features=768, bias=True)\r\n                  (key): Linear(in_features=768, out_features=768, bias=True)\r\n                  (value): Linear(in_features=768, out_features=768, bias=True)\r\n                  (dropout): Dropout(p=0.1, inplace=False)\r\n                )\r\n                (output): BertSelfOutput(\r\n                  (dense): Linear(in_features=768, out_features=768, bias=True)\r\n                  (LayerNorm): LayerNorm((768,), eps=1e-12, elementwise_affine=True)\r\n                  (dropout): Dropout(p=0.1, inplace=False)\r\n                )\r\n              )\r\n              (intermediate): BertIntermediate(\r\n                (dense): Linear(in_features=768, out_features=3072, bias=True)\r\n              )\r\n              (output): BertOutput(\r\n                (dense): Linear(in_features=3072, out_features=768, bias=True)\r\n                (LayerNorm): LayerNorm((768,), eps=1e-12, elementwise_affine=True)\r\n                (dropout): Dropout(p=0.1, inplace=False)\r\n              )\r\n            )\r\n            (1): BertLayer(\r\n              (attention): BertAttention(\r\n                (self): BertSelfAttention(\r\n                  (query): Linear(in_features=768, out_features=768, bias=True)\r\n                  (key): Linear(in_features=768, out_features=768, bias=True)\r\n                  (value): Linear(in_features=768, out_features=768, bias=True)\r\n                  (dropout): Dropout(p=0.1, inplace=False)\r\n                )\r\n                (output): BertSelfOutput(\r\n                  (dense): Linear(in_features=768, out_features=768, bias=True)\r\n                  (LayerNorm): LayerNorm((768,), eps=1e-12, elementwise_affine=True)\r\n                  (dropout): Dropout(p=0.1, inplace=False)\r\n                )\r\n              )\r\n              (intermediate): BertIntermediate(\r\n                (dense): Linear(in_features=768, out_features=3072, bias=True)\r\n              )\r\n              (output): BertOutput(\r\n                (dense): Linear(in_features=3072, out_features=768, bias=True)\r\n                (LayerNorm): LayerNorm((768,), eps=1e-12, elementwise_affine=True)\r\n                (dropout): Dropout(p=0.1, inplace=False)\r\n              )\r\n            )\r\n            (2): BertLayer(\r\n              (attention): BertAttention(\r\n                (self): BertSelfAttention(\r\n                  (query): Linear(in_features=768, out_features=768, bias=True)\r\n                  (key): Linear(in_features=768, out_features=768, bias=True)\r\n                  (value): Linear(in_features=768, out_features=768, bias=True)\r\n                  (dropout): Dropout(p=0.1, inplace=False)\r\n                )\r\n                (output): BertSelfOutput(\r\n                  (dense): Linear(in_features=768, out_features=768, bias=True)\r\n                  (LayerNorm): LayerNorm((768,), eps=1e-12, elementwise_affine=True)\r\n                  (dropout): Dropout(p=0.1, inplace=False)\r\n                )\r\n              )\r\n              (intermediate): BertIntermediate(\r\n                (dense): Linear(in_features=768, out_features=3072, bias=True)\r\n              )\r\n              (output): BertOutput(\r\n                (dense): Linear(in_features=3072, out_features=768, bias=True)\r\n                (LayerNorm): LayerNorm((768,), eps=1e-12, elementwise_affine=True)\r\n                (dropout): Dropout(p=0.1, inplace=False)\r\n              )\r\n            )\r\n            (3): BertLayer(\r\n              (attention): BertAttention(\r\n                (self): BertSelfAttention(\r\n                  (query): Linear(in_features=768, out_features=768, bias=True)\r\n                  (key): Linear(in_features=768, out_features=768, bias=True)\r\n                  (value): Linear(in_features=768, out_features=768, bias=True)\r\n                  (dropout): Dropout(p=0.1, inplace=False)\r\n                )\r\n                (output): BertSelfOutput(\r\n                  (dense): Linear(in_features=768, out_features=768, bias=True)\r\n                  (LayerNorm): LayerNorm((768,), eps=1e-12, elementwise_affine=True)\r\n                  (dropout): Dropout(p=0.1, inplace=False)\r\n                )\r\n              )\r\n              (intermediate): BertIntermediate(\r\n                (dense): Linear(in_features=768, out_features=3072, bias=True)\r\n              )\r\n              (output): BertOutput(\r\n                (dense): Linear(in_features=3072, out_features=768, bias=True)\r\n                (LayerNorm): LayerNorm((768,), eps=1e-12, elementwise_affine=True)\r\n                (dropout): Dropout(p=0.1, inplace=False)\r\n              )\r\n            )\r\n            (4): BertLayer(\r\n              (attention): BertAttention(\r\n                (self): BertSelfAttention(\r\n                  (query): Linear(in_features=768, out_features=768, bias=True)\r\n                  (key): Linear(in_features=768, out_features=768, bias=True)\r\n                  (value): Linear(in_features=768, out_features=768, bias=True)\r\n                  (dropout): Dropout(p=0.1, inplace=False)\r\n                )\r\n                (output): BertSelfOutput(\r\n                  (dense): Linear(in_features=768, out_features=768, bias=True)\r\n                  (LayerNorm): LayerNorm((768,), eps=1e-12, elementwise_affine=True)\r\n                  (dropout): Dropout(p=0.1, inplace=False)\r\n                )\r\n              )\r\n              (intermediate): BertIntermediate(\r\n                (dense): Linear(in_features=768, out_features=3072, bias=True)\r\n              )\r\n              (output): BertOutput(\r\n                (dense): Linear(in_features=3072, out_features=768, bias=True)\r\n                (LayerNorm): LayerNorm((768,), eps=1e-12, elementwise_affine=True)\r\n                (dropout): Dropout(p=0.1, inplace=False)\r\n              )\r\n            )\r\n            (5): BertLayer(\r\n              (attention): BertAttention(\r\n                (self): BertSelfAttention(\r\n                  (query): Linear(in_features=768, out_features=768, bias=True)\r\n                  (key): Linear(in_features=768, out_features=768, bias=True)\r\n                  (value): Linear(in_features=768, out_features=768, bias=True)\r\n                  (dropout): Dropout(p=0.1, inplace=False)\r\n                )\r\n                (output): BertSelfOutput(\r\n                  (dense): Linear(in_features=768, out_features=768, bias=True)\r\n                  (LayerNorm): LayerNorm((768,), eps=1e-12, elementwise_affine=True)\r\n                  (dropout): Dropout(p=0.1, inplace=False)\r\n                )\r\n              )\r\n              (intermediate): BertIntermediate(\r\n                (dense): Linear(in_features=768, out_features=3072, bias=True)\r\n              )\r\n              (output): BertOutput(\r\n                (dense): Linear(in_features=3072, out_features=768, bias=True)\r\n                (LayerNorm): LayerNorm((768,), eps=1e-12, elementwise_affine=True)\r\n                (dropout): Dropout(p=0.1, inplace=False)\r\n              )\r\n            )\r\n            (6): BertLayer(\r\n              (attention): BertAttention(\r\n                (self): BertSelfAttention(\r\n                  (query): Linear(in_features=768, out_features=768, bias=True)\r\n                  (key): Linear(in_features=768, out_features=768, bias=True)\r\n                  (value): Linear(in_features=768, out_features=768, bias=True)\r\n                  (dropout): Dropout(p=0.1, inplace=False)\r\n                )\r\n                (output): BertSelfOutput(\r\n                  (dense): Linear(in_features=768, out_features=768, bias=True)\r\n                  (LayerNorm): LayerNorm((768,), eps=1e-12, elementwise_affine=True)\r\n                  (dropout): Dropout(p=0.1, inplace=False)\r\n                )\r\n              )\r\n              (intermediate): BertIntermediate(\r\n                (dense): Linear(in_features=768, out_features=3072, bias=True)\r\n              )\r\n              (output): BertOutput(\r\n                (dense): Linear(in_features=3072, out_features=768, bias=True)\r\n                (LayerNorm): LayerNorm((768,), eps=1e-12, elementwise_affine=True)\r\n                (dropout): Dropout(p=0.1, inplace=False)\r\n              )\r\n            )\r\n            (7): BertLayer(\r\n              (attention): BertAttention(\r\n                (self): BertSelfAttention(\r\n                  (query): Linear(in_features=768, out_features=768, bias=True)\r\n                  (key): Linear(in_features=768, out_features=768, bias=True)\r\n                  (value): Linear(in_features=768, out_features=768, bias=True)\r\n                  (dropout): Dropout(p=0.1, inplace=False)\r\n                )\r\n                (output): BertSelfOutput(\r\n                  (dense): Linear(in_features=768, out_features=768, bias=True)\r\n                  (LayerNorm): LayerNorm((768,), eps=1e-12, elementwise_affine=True)\r\n                  (dropout): Dropout(p=0.1, inplace=False)\r\n                )\r\n              )\r\n              (intermediate): BertIntermediate(\r\n                (dense): Linear(in_features=768, out_features=3072, bias=True)\r\n              )\r\n              (output): BertOutput(\r\n                (dense): Linear(in_features=3072, out_features=768, bias=True)\r\n                (LayerNorm): LayerNorm((768,), eps=1e-12, elementwise_affine=True)\r\n                (dropout): Dropout(p=0.1, inplace=False)\r\n              )\r\n            )\r\n            (8): BertLayer(\r\n              (attention): BertAttention(\r\n                (self): BertSelfAttention(\r\n                  (query): Linear(in_features=768, out_features=768, bias=True)\r\n                  (key): Linear(in_features=768, out_features=768, bias=True)\r\n                  (value): Linear(in_features=768, out_features=768, bias=True)\r\n                  (dropout): Dropout(p=0.1, inplace=False)\r\n                )\r\n                (output): BertSelfOutput(\r\n                  (dense): Linear(in_features=768, out_features=768, bias=True)\r\n                  (LayerNorm): LayerNorm((768,), eps=1e-12, elementwise_affine=True)\r\n                  (dropout): Dropout(p=0.1, inplace=False)\r\n                )\r\n              )\r\n              (intermediate): BertIntermediate(\r\n                (dense): Linear(in_features=768, out_features=3072, bias=True)\r\n              )\r\n              (output): BertOutput(\r\n                (dense): Linear(in_features=3072, out_features=768, bias=True)\r\n                (LayerNorm): LayerNorm((768,), eps=1e-12, elementwise_affine=True)\r\n                (dropout): Dropout(p=0.1, inplace=False)\r\n              )\r\n            )\r\n            (9): BertLayer(\r\n              (attention): BertAttention(\r\n                (self): BertSelfAttention(\r\n                  (query): Linear(in_features=768, out_features=768, bias=True)\r\n                  (key): Linear(in_features=768, out_features=768, bias=True)\r\n                  (value): Linear(in_features=768, out_features=768, bias=True)\r\n                  (dropout): Dropout(p=0.1, inplace=False)\r\n                )\r\n                (output): BertSelfOutput(\r\n                  (dense): Linear(in_features=768, out_features=768, bias=True)\r\n                  (LayerNorm): LayerNorm((768,), eps=1e-12, elementwise_affine=True)\r\n                  (dropout): Dropout(p=0.1, inplace=False)\r\n                )\r\n              )\r\n              (intermediate): BertIntermediate(\r\n                (dense): Linear(in_features=768, out_features=3072, bias=True)\r\n              )\r\n              (output): BertOutput(\r\n                (dense): Linear(in_features=3072, out_features=768, bias=True)\r\n                (LayerNorm): LayerNorm((768,), eps=1e-12, elementwise_affine=True)\r\n                (dropout): Dropout(p=0.1, inplace=False)\r\n              )\r\n            )\r\n            (10): BertLayer(\r\n              (attention): BertAttention(\r\n                (self): BertSelfAttention(\r\n                  (query): Linear(in_features=768, out_features=768, bias=True)\r\n                  (key): Linear(in_features=768, out_features=768, bias=True)\r\n                  (value): Linear(in_features=768, out_features=768, bias=True)\r\n                  (dropout): Dropout(p=0.1, inplace=False)\r\n                )\r\n                (output): BertSelfOutput(\r\n                  (dense): Linear(in_features=768, out_features=768, bias=True)\r\n                  (LayerNorm): LayerNorm((768,), eps=1e-12, elementwise_affine=True)\r\n                  (dropout): Dropout(p=0.1, inplace=False)\r\n                )\r\n              )\r\n              (intermediate): BertIntermediate(\r\n                (dense): Linear(in_features=768, out_features=3072, bias=True)\r\n              )\r\n              (output): BertOutput(\r\n                (dense): Linear(in_features=3072, out_features=768, bias=True)\r\n                (LayerNorm): LayerNorm((768,), eps=1e-12, elementwise_affine=True)\r\n                (dropout): Dropout(p=0.1, inplace=False)\r\n              )\r\n            )\r\n            (11): BertLayer(\r\n              (attention): BertAttention(\r\n                (self): BertSelfAttention(\r\n                  (query): Linear(in_features=768, out_features=768, bias=True)\r\n                  (key): Linear(in_features=768, out_features=768, bias=True)\r\n                  (value): Linear(in_features=768, out_features=768, bias=True)\r\n                  (dropout): Dropout(p=0.1, inplace=False)\r\n                )\r\n                (output): BertSelfOutput(\r\n                  (dense): Linear(in_features=768, out_features=768, bias=True)\r\n                  (LayerNorm): LayerNorm((768,), eps=1e-12, elementwise_affine=True)\r\n                  (dropout): Dropout(p=0.1, inplace=False)\r\n                )\r\n              )\r\n              (intermediate): BertIntermediate(\r\n                (dense): Linear(in_features=768, out_features=3072, bias=True)\r\n              )\r\n              (output): BertOutput(\r\n                (dense): Linear(in_features=3072, out_features=768, bias=True)\r\n                (LayerNorm): LayerNorm((768,), eps=1e-12, elementwise_affine=True)\r\n                (dropout): Dropout(p=0.1, inplace=False)\r\n              )\r\n            )\r\n          )\r\n        )\r\n        (pooler): BertPooler(\r\n          (dense): Linear(in_features=768, out_features=768, bias=True)\r\n          (activation): Tanh()\r\n        )\r\n      )\r\n    )\r\n    (list_embedding_1): WordEmbeddings('ar')\r\n    (list_embedding_2): PooledFlairEmbeddings(\r\n      (context_embeddings): FlairEmbeddings(\r\n        (lm): LanguageModel(\r\n          (drop): Dropout(p=0.1, inplace=False)\r\n          (encoder): Embedding(7125, 100)\r\n          (rnn): LSTM(100, 2048)\r\n          (decoder): Linear(in_features=2048, out_features=7125, bias=True)\r\n        )\r\n      )\r\n    )\r\n    (list_embedding_3): PooledFlairEmbeddings(\r\n      (context_embeddings): FlairEmbeddings(\r\n        (lm): LanguageModel(\r\n          (drop): Dropout(p=0.1, inplace=False)\r\n          (encoder): Embedding(7125, 100)\r\n          (rnn): LSTM(100, 2048)\r\n          (decoder): Linear(in_features=2048, out_features=7125, bias=True)\r\n        )\r\n      )\r\n    )\r\n  )\r\n  (word_dropout): WordDropout(p=0.05)\r\n  (locked_dropout): LockedDropout(p=0.5)\r\n  (embedding2nn): Linear(in_features=11564, out_features=11564, bias=True)\r\n  (rnn): LSTM(11564, 256, batch_first=True, bidirectional=True)\r\n  (linear): Linear(in_features=512, out_features=31, bias=True)\r\n  (beta): 1.0\r\n  (weights): None\r\n  (weight_tensor) None\r\n)\"\r\n2021-01-25 10:21:56,231 ----------------------------------------------------------------------------------------------------\r\n2021-01-25 10:21:56,232 Corpus: \"Corpus: 1148 train + 613 dev + 4686 test sentences\"\r\n2021-01-25 10:21:56,233 ---------------------------------------
…
vailable.\r\nTensorFlow version 2.0.0 available.\r\n2020-10-07 11:58:39,499 Reading data from data\r\n2020-10-07 11:58:39,499 Train: data/train.txt\r\n2020-10-07 11:58:39,499 Dev: data/dev.txt\r\n2020-10-07 11:58:39,500 Test: data/test.txt\r\n2020-10-07 12:00:20,735 ----------------------------------------------------------------------------------------------------\r\n2020-10-07 12:00:20,736 Model: \"SequenceTagger(\r\n  (embeddings): StackedEmbeddings(\r\n    (list_embedding_0): FlairEmbeddings(\r\n      (lm): LanguageModel(\r\n        (drop): Dropout(p=0.5, inplace=False)\r\n        (encoder): Embedding(275, 100)\r\n        (rnn): LSTM(100, 1024)\r\n        (decoder): Linear(in_features=1024, out_features=275, bias=True)\r\n      )\r\n    )\r\n    (list_embedding_1): FlairEmbeddings(\r\n      (lm): LanguageModel(\r\n        (drop): Dropout(p=0.5, inplace=False)\r\n        (encoder): Embedding(275, 100)\r\n        (rnn): LSTM(100, 1024)\r\n        (decoder): Linear(in_features=1024, out_features=275, bias=True)\r\n      )\r\n    )\r\n    (list_embedding_2): BytePairEmbeddings(model=2-bpe-custom-100000-200)\r\n  )\r\n  (word_dropout): WordDropout(p=0.05)\r\n  (locked_dropout): LockedDropout(p=0.5)\r\n  (embedding2nn): Linear(in_features=2448, out_features=2448, bias=True)\r\n  (rnn): LSTM(2448, 256, num_layers=2, batch_first=True, dropout=0.5, bidirectional=True)\r\n  (linear): Linear(in_features=512, out_features=47, bias=True)\r\n  (beta): 1.0\r\n  (weights): None\r\n  (weight_tensor) None\r\n)\"\r\n2020-10-07 12:00:20,736 ----------------------------------------------------------------------------------------------------\r\n2020-10-07 12:00:20,736 Corpus: \"Corpus: 183145 train + 24944 dev + 21721 test sentences\"\r\n2020-10-07 12:00:20,736 ----------------------------------
…
dings') -- Deprecated since version 0.4.\r\n  app.launch_new_instance()\r\n0it [00:00, ?it/s]\r\n2020-08-13 13:02:25,102 []\r\n2020-08-13 13:02:25,107 ----------------------------------------------------------------------------------------------------\r\n2020-08-13 13:02:25,108 Model: \"TextClassifier(\r\n  (document_embeddings): DocumentLSTMEmbeddings(\r\n    (embeddings): StackedEmbeddings(\r\n      (list_embedding_0): WordEmbeddings('glove')\r\n      (list_embedding_1): FlairEmbeddings(\r\n        (lm): LanguageModel(\r\n          (drop): Dropout(p=0.25, inplace=False)\r\n          (encoder): Embedding(275, 100)\r\n          (rnn): LSTM(100, 1024)\r\n          (decoder): Linear(in_features=1024, out_features=275, bias=True)\r\n        )\r\n      )\r\n      (list_embedding_2): FlairEmbeddings(\r\n        (lm): LanguageModel(\r\n          (drop): Dropout(p=0.25, inplace=False)\r\n          (encoder): Embedding(275, 100)\r\n          (rnn): LSTM(100, 1024)\r\n          (decoder): Linear(in_features=1024, out_features=275, bias=True)\r\n        )\r\n      )\r\n    )\r\n    (word_reprojection_map): Linear(in_features=2148, out_features=256, bias=True)\r\n    (rnn): GRU(256, 512)\r\n    (dropout): Dropout(p=0.5, inplace=False)\r\n  )\r\n  (decoder): Linear(in_features=512, out_features=0, bias=True)\r\n  (loss_function): CrossEntropyLoss()\r\n  (beta): 1.0\r\n  (weights): None\r\n  (weight_tensor) None\r\n)\"\r\n2020-08-13 13:02:25,109 ----------------------------------------------------------------------------------------------------\r\n2020-08-13 13:02:25,121 Corpus: \"Corpus: 0 train + 0 dev + 0 test sentences\"\r\n2020-08-13 13:02:25,122 -------
…
n: /root/.flair/datasets/biofid/train.conll\r\n2020-07-24 19:36:56,384 Dev: /root/.flair/datasets/biofid/dev.conll\r\n2020-07-24 19:36:56,384 Test: /root/.flair/datasets/biofid/test.conll\r\n2020-07-24 19:37:10,757 ----------------------------------------------------------------------------------------------------\r\n2020-07-24 19:37:10,758 Model: \"SequenceTagger(\r\n  (embeddings): StackedEmbeddings(\r\n    (list_embedding_0): WordEmbeddings('glove')\r\n    (list_embedding_1): FlairEmbeddings(\r\n      (lm): LanguageModel(\r\n        (drop): Dropout(p=0.05, inplace=False)\r\n        (encoder): Embedding(300, 100)\r\n        (rnn): LSTM(100, 2048)\r\n        (decoder): Linear(in_features=2048, out_features=300, bias=True)\r\n      )\r\n    )\r\n    (list_embedding_2): FlairEmbeddings(\r\n      (lm): LanguageModel(\r\n        (drop): Dropout(p=0.05, inplace=False)\r\n        (encoder): Embedding(300, 100)\r\n        (rnn): LSTM(100, 2048)\r\n        (decoder): Linear(in_features=2048, out_features=300, bias=True)\r\n      )\r\n    )\r\n  )\r\n  (word_dropout): WordDropout(p=0.05)\r\n  (locked_dropout): LockedDropout(p=0.5)\r\n  (embedding2nn): Linear(in_features=4196, out_features=4196, bias=True)\r\n  (rnn): LSTM(4196, 256, batch_first=True, bidirectional=True)\r\n  (linear): Linear(in_features=512, out_features=28, bias=True)\r\n  (beta): 1.0\r\n  (weights): None\r\n  (weight_tensor) None\r\n)\"\r\n2020-07-24 19:37:10,758 ----------------------------------------------------------------------------------------------------\r\n2020-07-24 19:37:10,758 Corpus: \"Corpus: 12668 train + 1584 dev + 1584 test sentences\"\r\n2020-07-24 19:37:10,758 -------------------------------------
…
ason": null, "body": "**Describe the bug**\r\nThe CUDA runs out of memory. I have tried the mentioned solution in the other similar issue. \r\nThe version of library installed is - 0.4.5 - master branch\r\npip install --upgrade git+https://github.com/zalandoresearch/flair.git\r\n\r\n```\r\n----------------------------------------------------------------------------------------------------\r\nModel: \"SequenceTagger(\r\n  (embeddings): StackedEmbeddings(\r\n    (list_embedding_0): FlairEmbeddings(\r\n      (lm): LanguageModel(\r\n        (drop): Dropout(p=0.1, inplace=False)\r\n        (encoder): Embedding(275, 100)\r\n        (rnn): LSTM(100, 128)\r\n        (decoder): Linear(in_features=128, out_features=275, bias=True)\r\n      )\r\n    )\r\n    (list_embedding_1): FlairEmbeddings(\r\n      (lm): LanguageModel(\r\n        (drop): Dropout(p=0.1, inplace=False)\r\n        (encoder): Embedding(275, 100)\r\n        (rnn): LSTM(100, 128)\r\n        (decoder): Linear(in_features=128, out_features=275, bias=True)\r\n      )\r\n    )\r\n  )\r\n  (word_dropout): WordDropout(p=0.05)\r\n  (locked_dropout): LockedDropout(p=0.5)\r\n  (embedding2nn): Linear(in_features=256, out_features=256, bias=True)\r\n  (rnn): LSTM(256, 256, batch_first=True, bidirectional=True)\r\n  (linear): Linear(in_features=512, out_features=30, bias=True)\r\n  (beta): 1.0\r\n  (weights): None\r\n  (weight_tensor) None\r\n)\"\r\n----------------------------------------------------------------------------------------------------\r\nCorpus: \"Corpus: 14098 train + 3021 dev + 3022 test sentences\"\r\n----------------------------------------------------------------------------------------------------\r\nParam
…
 Drive/resources/tasks/conll_03/dev.txt\r\n2020-02-03 16:59:38,785 Test: /content/gdrive/My Drive/resources/tasks/conll_03/test.txt\r\n2020-02-03 17:00:24,966 ----------------------------------------------------------------------------------------------------\r\n2020-02-03 17:00:24,970 Model: \"SequenceTagger(\r\n  (embeddings): StackedEmbeddings(\r\n    (list_embedding_0): WordEmbeddings('ar')\r\n    (list_embedding_1): PooledFlairEmbeddings(\r\n      (context_embeddings): FlairEmbeddings(\r\n        (lm): LanguageModel(\r\n          (drop): Dropout(p=0.1, inplace=False)\r\n          (encoder): Embedding(7125, 100)\r\n          (rnn): LSTM(100, 2048)\r\n          (decoder): Linear(in_features=2048, out_features=7125, bias=True)\r\n        )\r\n      )\r\n    )\r\n    (list_embedding_2): PooledFlairEmbeddings(\r\n      (context_embeddings): FlairEmbeddings(\r\n        (lm): LanguageModel(\r\n          (drop): Dropout(p=0.1, inplace=False)\r\n          (encoder): Embedding(7125, 100)\r\n          (rnn): LSTM(100, 2048)\r\n          (decoder): Linear(in_features=2048, out_features=7125, bias=True)\r\n        )\r\n      )\r\n    )\r\n  )\r\n  (word_dropout): WordDropout(p=0.05)\r\n  (locked_dropout): LockedDropout(p=0.5)\r\n  (embedding2nn): Linear(in_features=8492, out_features=8492, bias=True)\r\n  (rnn): LSTM(8492, 256, batch_first=True, bidirectional=True)\r\n  (linear): Linear(in_features=512, out_features=12, bias=True)\r\n  (beta): 1.0\r\n  (weights): None\r\n  (weight_tensor) None\r\n)\"\r\n2020-02-03 17:00:24,975 ----------------------------------------------------------------------------------------------------\r\n2020-02-03 17:00:24,978 Corpus: \"Corpus: 1328 train + 710 dev + 605 test sentences\"\r\n2020-02-03 17:00:24,981 ----------------------------------------
…
e/.flair/datasets/conll_03_dutch/ned.testa\r\n2019-11-12 09:10:16,480 Test: /home/username/.flair/datasets/conll_03_dutch/ned.testb\r\n2019-11-12 09:10:28,986 ----------------------------------------------------------------------------------------------------\r\n2019-11-12 09:10:28,987 Model: \"SequenceTagger(\r\n  (embeddings): StackedEmbeddings(\r\n    (list_embedding_0): WordEmbeddings('nl')\r\n    (list_embedding_1): PooledFlairEmbeddings(\r\n      (context_embeddings): FlairEmbeddings(\r\n        (lm): LanguageModel(\r\n          (drop): Dropout(p=0.1, inplace=False)\r\n          (encoder): Embedding(7632, 100)\r\n          (rnn): LSTM(100, 2048)\r\n          (decoder): Linear(in_features=2048, out_features=7632, bias=True)\r\n        )\r\n      )\r\n    )\r\n    (list_embedding_2): PooledFlairEmbeddings(\r\n      (context_embeddings): FlairEmbeddings(\r\n        (lm): LanguageModel(\r\n          (drop): Dropout(p=0.1, inplace=False)\r\n          (encoder): Embedding(7632, 100)\r\n          (rnn): LSTM(100, 2048)\r\n          (decoder): Linear(in_features=2048, out_features=7632, bias=True)\r\n        )\r\n      )\r\n    )\r\n  )\r\n  (word_dropout): WordDropout(p=0.05)\r\n  (locked_dropout): LockedDropout(p=0.5)\r\n  (embedding2nn): Linear(in_features=8492, out_features=8492, bias=True)\r\n  (rnn): LSTM(8492, 256, batch_first=True, bidirectional=True)\r\n  (linear): Linear(in_features=512, out_features=20, bias=True)\r\n)\"\r\n2019-11-12 09:10:28,987 ----------------------------------------------------------------------------------------------------\r\n2019-11-12 09:10:28,987 Corpus: \"Corpus: 15806 train + 2895 dev + 5195 test sentences\"\r\n2019-11-12 09:10:28,987 ----------------------------------------------------------------------------------------------------\
…
08-26 16:38:22,851 Reading data from /tmp\r\n2019-08-26 16:38:22,851 Train: /tmp/tmpl7l954km\r\n2019-08-26 16:38:22,851 Dev: /tmp/tmpfhh1l1z3\r\n2019-08-26 16:38:22,851 Test: /tmp/tmpfhh1l1z3\r\n2019-08-26 16:38:32,482 ----------------------------------------------------------------------------------------------------\r\n2019-08-26 16:38:32,483 Model: \"SequenceTagger(\r\n  (embeddings): StackedEmbeddings(\r\n    (list_embedding_0): WordEmbeddings('fr')\r\n    (list_embedding_1): FlairEmbeddings(\r\n      (lm): LanguageModel(\r\n        (drop): Dropout(p=0.5, inplace=False)\r\n        (encoder): Embedding(275, 100)\r\n        (rnn): LSTM(100, 1024)\r\n        (decoder): Linear(in_features=1024, out_features=275, bias=True)\r\n      )\r\n    )\r\n    (list_embedding_2): FlairEmbeddings(\r\n      (lm): LanguageModel(\r\n        (drop): Dropout(p=0.5, inplace=False)\r\n        (encoder): Embedding(275, 100)\r\n        (rnn): LSTM(100, 1024)\r\n        (decoder): Linear(in_features=1024, out_features=275, bias=True)\r\n      )\r\n    )\r\n  )\r\n  (word_dropout): WordDropout(p=0.05)\r\n  (locked_dropout): LockedDropout(p=0.5)\r\n  (embedding2nn): Linear(in_features=2348, out_features=2348, bias=True)\r\n  (rnn): LSTM(2348, 256, bidirectional=True)\r\n  (linear): Linear(in_features=512, out_features=42, bias=True)\r\n)\"\r\n2019-08-26 16:38:32,483 ----------------------------------------------------------------------------------------------------\r\n2019-08-26 16:38:32,483 Corpus: \"Corpus: 6968 train + 2148 dev + 2148 test sentences\"\r\n2019-08-26 16:38:32,483 ----------------------------------------------------------------------------------------------------\r
…
