…
ve_asr_model_valid.acc.best/eval1/logdir/output.10 --config conf/decode_asr.yaml --lm_train_config exp/lm_train_lm_char/config.yaml --lm_file exp/lm_train_lm_char/valid.loss.ave.pth\r\n2020-09-16 11:51:07,297 (asr:281) INFO: Vocabulary size: 3262\r\n2020-09-16 11:51:11,029 (lm:198) INFO: Vocabulary size: 3262\r\n2020-09-16 11:51:11,260 (asr_inference:119) INFO: BatchBeamSearch implementation is selected.\r\n2020-09-16 11:51:11,265 (asr_inference:129) INFO: Beam_search: BatchBeamSearch(\r\n  (nn_dict): ModuleDict(\r\n    (decoder): TransformerDecoder(\r\n      (embed): Sequential(\r\n        (0): Embedding(3262, 512)\r\n        (1): PositionalEncoding(\r\n          (dropout): Dropout(p=0.1, inplace=False)\r\n        )\r\n      )\r\n      (after_norm): LayerNorm((512,), eps=1e-12, elementwise_affine=True)\r\n      (output_layer): Linear(in_features=512, out_features=3262, bias=True)\r\n      (decoders): MultiSequential(\r\n        (0): DecoderLayer(\r\n          (self_attn): MultiHeadedAttention(\r\n            (linear_q): Linear(in_features=512, out_features=512, bias=True)\r\n            (linear_k): Linear(in_features=512, out_features=512, bias=True)\r\n            (linear_v): Linear(in_features=512, out_features=512, bias=True)\r\n            (linear_out): Linear(in_features=512, out_features=512, bias=True)\r\n            (dropout): Dropout(p=0.1, inplace=False)\r\n          )\r\n          (src_attn): MultiHeadedAttention(\r\n            (linear_q): Linear(in_features=512, out_features=512, bias=True)\r\n            (linear_k): Linear(in_features=512, out_features=512, bias=True)\r\n            (linear_v): Linear(in_features=512, out_features=512, bias=True)\r\n            (linear_out): Linear(in_features=512, out_features=512, bias=True)\r\n            (dropout): Dropout(p=0.1, inplace=False)\r\n          )\r\n          (feed_forward): PositionwiseFeedForward(\r\n            (w_1): Linear(in_features=512, out_features=2048, bias=True)\r\n            (w_2): Linear(in_features=2048, out_features=512, bias=True)\r\n            (dropout): Dropout(p=0.1, inplace=False)\r\n            (activation): ReLU()\r\n          )\r\n          (norm1): LayerNorm((512,), eps=1e-12, elementwise_affine=True)\r\n          (norm2): LayerNorm((512,), eps=1e-12, elementwise_affine=True)\r\n          (norm3): LayerNorm((512,), eps=1e-12, elementwise_affine=True)\r\n          (dropout): Dropout(p=0.1, inplace=False)\r\n        )\r\n        (1): DecoderLayer(\r\n          (self_attn): MultiHeadedAttention(\r\n            (linear_q): Linear(in_features=512, out_features=512, bias=True)\r\n            (linear_k): Linear(in_features=512, out_features=512, bias=True)\r\n            (linear_v): Linear(in_features=512, out_features=512, bias=True)\r\n            (linear_out): Linear(in_features=512, out_features=512, bias=True)\r\n            (dropout): Dropout(p=0.1, inplace=False)\r\n          )\r\n          (src_attn): MultiHeadedAttention(\r\n            (linear_q): Linear(in_features=512, out_features=512, bias=True)\r\n            (linear_k): Linear(in_features=512, out_features=512, bias=True)\r\n            (linear_v): Linear(in_features=512, out_features=512, bias=True)\r\n            (linear_out): Linear(in_features=512, out_features=512, bias=True)\r\n            (dropout): Dropout(p=0.1, inplace=False)\r\n          )\r\n          (feed_forward): PositionwiseFeedForward(\r\n            (w_1): Linear(in_features=512, out_features=2048, bias=True)\r\n            (w_2): Linear(in_features=2048, out_features=512, bias=True)\r\n            (dropout): Dropout(p=0.1, inplace=False)\r\n            (activation): ReLU()\r\n          )\r\n          (norm1): LayerNorm((512,), eps=1e-12, elementwise_affine=True)\r\n          (norm2): LayerNorm((512,), eps=1e-12, elementwise_affine=True)\r\n          (norm3): LayerNorm((512,), eps=1e-12, elementwise_affine=True)\r\n          (dropout): Dropout(p=0.1, inplace=False)\r\n        )\r\n        (2): DecoderLayer(\r\n          (self_attn): MultiHeadedAttention(\r\n            (linear_q): Linear(in_features=512, out_features=512, bias=True)\r\n            (linear_k): Linear(in_features=512, out_features=512, bias=True)\r\n            (linear_v): Linear(in_features=512, out_features=512, bias=True)\r\n            (linear_out): Linear(in_features=512, out_features=512, bias=True)\r\n            (dropout): Dropout(p=0.1, inplace=False)\r\n          )\r\n          (src_attn): MultiHeadedAttention(\r\n            (linear_q): Linear(in_features=512, out_features=512, bias=True)\r\n            (linear_k): Linear(in_features=512, out_features=512, bias=True)\r\n            (linear_v): Linear(in_features=512, out_features=512, bias=True)\r\n            (linear_out): Linear(in_features=512, out_features=512, bias=True)\r\n            (dropout): Dropout(p=0.1, inplace=False)\r\n          )\r\n          (feed_forward): PositionwiseFeedForward(\r\n            (w_1): Linear(in_features=512, out_features=2048, bias=True)\r\n            (w_2): Linear(in_features=2048, out_features=512, bias=True)\r\n            (dropout): Dropout(p=0.1, inplace=False)\r\n            (activation): ReLU()\r\n          )\r\n          (norm1): LayerNorm((512,), eps=1e-12, elementwise_affine=True)\r\n          (norm2): LayerNorm((512,), eps=1e-12, elementwise_affine=True)\r\n          (norm3): LayerNorm((512,), eps=1e-12, elementwise_affine=True)\r\n          (dropout): Dropout(p=0.1, inplace=False)\r\n        )\r\n        (3): DecoderLayer(\r\n          (self_attn): MultiHeadedAttention(\r\n            (linear_q): Linear(in_features=512, out_features=512, bias=True)\r\n            (linear_k): Linear(in_features=512, out_features=512, bias=True)\r\n            (linear_v): Linear(in_features=512, out_features=512, bias=True)\r\n            (linear_out): Linear(in_features=512, out_features=512, bias=True)\r\n            (dropout): Dropout(p=0.1, inplace=False)\r\n          )\r\n          (src_attn): MultiHeadedAttention(\r\n            (linear_q): Linear(in_features=512, out_features=512, bias=True)\r\n            (linear_k): Linear(in_features=512, out_features=512, bias=True)\r\n            (linear_v): Linear(in_features=512, out_features=512, bias=True)\r\n            (linear_out): Linear(in_features=512, out_features=512, bias=True)\r\n            (dropout): Dropout(p=0.1, inplace=False)\r\n          )\r\n          (feed_forward): PositionwiseFeedForward(\r\n            (w_1): Linear(in_features=512, out_features=2048, bias=True)\r\n            (w_2): Linear(in_features=2048, out_features=512, bias=True)\r\n            (dropout): Dropout(p=0.1, inplace=False)\r\n            (activation): ReLU()\r\n          )\r\n          (norm1): LayerNorm((512,), eps=1e-12, elementwise_affine=True)\r\n          (norm2): LayerNorm((512,), eps=1e-12, elementwise_affine=True)\r\n          (norm3): LayerNorm((512,), eps=1e-12, elementwise_affine=True)\r\n          (dropout): Dropout(p=0.1, inplace=False)\r\n        )\r\n        (4): DecoderLayer(\r\n          (self_attn): MultiHeadedAttention(\r\n            (linear_q): Linear(in_features=512, out_features=512, bias=True)\r\n            (linear_k): Linear(in_features=512, out_features=512, bias=True)\r\n            (linear_v): Linear(in_features=512, out_features=512, bias=True)\r\n            (linear_out): Linear(in_features=512, out_features=512, bias=True)\r\n            (dropout): Dropout(p=0.1, inplace=False)\r\n          )\r\n          (src_attn): MultiHeadedAttention(\r\n            (linear_q): Linear(in_features=512, out_features=512, bias=True)\r\n            (linear_k): Linear(in_features=512, out_features=512, bias=True)\r\n            (linear_v): Linear(in_features=512, out_features=512, bias=True)\r\n            (linear_out): Linear(in_features=512, out_features=512, bias=True)\r\n            (dropout): Dropout(p=0.1, inplace=False)\r\n          )\r\n          (feed_forward): PositionwiseFeedForward(\r\n            (w_1): Linear(in_features=512, out_features=2048, bias=True)\r\n            (w_2): Linear(in_features=2048, out_features=512, bias=True)\r\n            (dropout): Dropout(p=0.1, inplace=False)\r\n            (activation): ReLU()\r\n          )\r\n          (norm1): LayerNorm((512,), eps=1e-12, elementwise_affine=True)\r\n          (norm2): LayerNorm((512,), eps=1e-12, elementwise_affine=True)\r\n          (norm3): LayerNorm((512,), eps=1e-12, elementwise_affine=True)\r\n          (dropout): Dropout(p=0.1, inplace=False)\r\n        )\r\n        (5): DecoderLayer(\r\n          (self_attn): MultiHeadedAttention(\r\n            (linear_q): Linear(in_features=512, out_features=512, bias=True)\r\n            (linear_k): Linear(in_features=512, out_features=512, bias=True)\r\n            (linear_v): Linear(in_features=512, out_features=512, bias=True)\r\n            (linear_out): Linear(in_features=512, out_features=512, bias=True)\r\n            (dropout): Dropout(p=0.1, inplace=False)\r\n          )\r\n          (src_attn): MultiHeadedAttention(\r\n            (linear_q): Linear(in_features=512, out_features=512, bias=True)\r\n            (linear_k): Linear(in_features=512, out_features=512, bias=True)\r\n            (linear_v): Linear(in_features=512, out_features=512, bias=True)\r\n            (linear_out): Linear(in_features=512, out_features=512, bias=True)\r\n            (dropout): Dropout(p=0.1, inplace=False)\r\n          )\r\n          (feed_forward): PositionwiseFeedForward(\r\n            (w_1): Linear(in_features=512, out_features=2048, bias=True)\r\n            (w_2): Linear(in_features=2048, out_features=512, bias=True)\r\n            (dropout): Dropout(p=0.1, inplace=False)\r\n            (activation): ReLU()\r\n          )\r\n          (norm1): LayerNorm((512,), eps=1e-12, elementwise_affine=True)\r\n          (norm2): LayerNorm((512,), eps=1e-12, elementwise_affine=True)\r\n          (norm3): LayerNorm((512,), eps=1e-12, elementwise_affine=True)\r\n          (dropout): Dropout(p=0.1, inplace=False)\r\n        )\r\n      )\r\n    )\r\n    (lm): SequentialRNNLM(\r\n      (drop): Dropout(p=0.0, inplace=False)\r\n      (encoder): Embedding(3262, 650, padding_idx=0)\r\n      (rnn): LSTM(650, 650, num_layers=2, batch_first=True)\r\n      (decoder): Linear(in_features=650, out_features=3262, bias=True)\r\n    )\r\n  )\r\n)\r\n2020-09-16 11:51:11,265 (asr_inference:130) INFO: Decoding device=cpu, dtype=float32\r\n2020-09-16 11:51:11,322 (asr_inference:148) INFO: Text tokenizer: CharTokenizer(space_symbol=\"<space>\"non_linguistic_symbols=\"set()\")\r\n2020-09-16 11:51:13,432 (beam_search:358) INFO: decoder input length: 156\r\n2020-09-16 11:51:13,433
…
