…
running on this host (pop-os): /proc/driver/nvidia/version does not exist\r\n2022-01-17 16:05:03.585266: I tensorflow/core/platform/cpu_feature_guard.cc:142] This TensorFlow binary is optimized with oneAPI Deep Neural Network Library (oneDNN) to use the following CPU instructions in performance-critical operations:  AVX2 FMA\r\nTo enable them in other operations, rebuild TensorFlow with the appropriate compiler flags.\r\n2022-01-17 16:05:03.585612: I tensorflow/compiler/jit/xla_gpu_device.cc:99] Not creating XLA devices, tf_xla_enable_xla_devices not set\r\n  1                -1  1     18560  models.common.Conv                      [32, 64, 3, 2]                \r\n  2                -1  1     20672  models.common.Bottleneck                [64, 64]                      \r\n  3                -1  1     73984  models.common.Conv                      [64, 128, 3, 2]               \r\n  4                -1  2    164608  models.common.Bottleneck                [128, 128]                    \r\n  5                -1  1    295424  models.common.Conv                      [128, 256, 3, 2]              \r\n  6                -1  8   2627584  models.common.Bottleneck                [256, 256]                    \r\n  7                -1  1   1180672  models.common.Conv                      [256, 512, 3, 2]              \r\n  8                -1  8  10498048  models.common.Bottleneck                [512, 512]                    \r\n  9                -1  1   4720640  models.common.Conv                      [512, 1024, 3, 2]             \r\n 10                -1  4  20983808  models.common.Bottleneck                [1024, 1024]                  \r\n 11                -1  1   5245952  models.common.Bottleneck                [1024, 1024, False]           \r\n\r\nTensorFlow saved_model: export failure: Convolution with multiple kernels are not allowed.\r\n\r\nTensorFlow GraphDef: starting export with tensorflow 2.4.1...\r\n\r\nTensorFlow GraphDef: export failure: 'NoneType' object has no attribute 'inputs'\r\n\r\nTensorFlow Lite: starting export with tensorflow 2.4.1...\r\n\r\nTensorFlow Lite: export failure: 'NoneType'
…
olov3', 'yolov3', pretrained=True, force_reload=True).autoshape()  # for PIL/cv2/np inputs and NMS\r\n\r\n# Images\r\nimg1 = Image.open('zidane.jpg')\r\nimg2 = Image.open('bus.jpg')\r\nimgs = [img1, img2]  # batched list of images\r\n\r\n# Inference\r\nprediction = model(imgs, size=640)  # includes NMS\r\n```\r\n\r\nOutput:\r\n```\r\nDownloading: \"https://github.com/ultralytics/yolov3/archive/master.zip\" to /root/.cache/torch/hub/master.zip\r\n\r\n                 from  n    params  module                                  arguments                     \r\n  0                -1  1       928  models.common.Conv                      [3, 32, 3, 1]                 \r\n  1                -1  1     18560  models.common.Conv                      [32, 64, 3, 2]                \r\n  2                -1  1     20672  models.common.Bottleneck                [64, 64]                      \r\n  3                -1  1     73984  models.common.Conv                      [64, 128, 3, 2]               \r\n  4                -1  2    164608  models.common.Bottleneck                [128, 128]                    \r\n  5                -1  1    295424  models.common.Conv                      [128, 256, 3, 2]              \r\n  6                -1  8   2627584  models.common.Bottleneck                [256, 256]                    \r\n  7                -1  1   1180672  models.common.Conv                      [256, 512, 3, 2]              \r\n  8                -1  8  10498048  models.common.Bottleneck                [512, 512]                    \r\n  9                -1  1   4720640  models.common.Conv                      [512, 1024, 3, 2]             \r\n 10                -1  4  20983808  models.common.Bottleneck                [1024, 1024]                  \r\n 11                -1  1   5245952  models.common.Bottleneck                [1024, 1024, False]           \r\n 12                -1  1    525312  models.common.Conv                      [1024, 512, [1, 1]]           \r\n 13                -1  1   4720640  models.common.Conv                      [512, 1024, 3, 1]             \r\n 14                -1  1    525312  models.common.Conv                      [1024, 512, 1, 1]             \r\n 15                -1  1   4720640  models.common.Conv                      [512, 1024, 3, 1]             \r\n 16                -2  1    131584  models.common.Conv                      [512, 256, 1, 1]              \r\n 17                -1  1         0  torch.nn.modules.upsampling.Upsample    [None, 2, 'nearest']          \r\n 18           [-1, 8]  1         0  models.common.Concat                    [1]                           \r\n 19                -1  1   1377792  models.common.Bottleneck                [768, 512, False]             \r\n 20                -1  1   1312256  models.common.Bottleneck                [512, 512, False]             \r\n 21                -1  1    131584  models.common.Conv                      [512, 256, 1, 1]              \r\n 22                -1  1   1180672  models.common.Conv                      [256, 512, 3, 1]              \r\n 23                -2  1     33024  models.common.Conv                      [256, 128, 1, 1]              \r\n 24                -1  1         0  torch.nn.modules.upsampling.Upsample    [None, 2, 'nearest']          \r\n 25           [-1, 6]  1         0  models.common.Concat                    [1]                           \r\n 26                -1  1    344832  models.common.Bottleneck                [384, 256, False]             \r\n 27                -1  2    656896  models.common.Bottleneck                [256, 256, False]             \r\n 28      [27, 22, 15]  1    457725  models.yolo.Detect                      [80, [[10, 13, 16, 30, 33, 23], [30, 61, 62, 45, 59, 119], [116, 90, 156, 198, 373, 326]], [256, 512, 1024]]\r\nModel Summary: 333 layers, 61949149 parameters, 61949149 gradients, 156.4 GFLOPS\r\n\r\nTraceback (most recent call last):\r\n  File \"/root/.cache/torch/hub/ultralytics_yolov3_ma
…
Weights & Biases for YOLOv3 logging with 'pip install wandb' (recommended)\r\nStart Tensorboard with \"tensorboard --logdir runs/train\", view at http://localhost:6006/\r\nhyperparameters: lr0=0.01, lrf=0.2, momentum=0.937, weight_decay=0.0005, warmup_epochs=3.0, warmup_momentum=0..5, cls_pw=1.0, obj=1.0, obj_pw=1.0, iou_t=0.2, anchor_t=4.0, fl_gamma=0.0, hsv_h=0.015, hsv_s=0.7, hsv_v=0.4,, shear=0.0, perspective=0.0, flipud=0.0, fliplr=0.5, mosaic=1.0, mixup=0.0\r\n\r\n                 from  n    params  module                                  arguments\r\n  0                -1  1       928  models.common.Conv                      [3, 32, 3, 1]\r\n  1                -1  1     18560  models.common.Conv                      [32, 64, 3, 2]\r\n  2                -1  1     20672  models.common.Bottleneck                [64, 64]\r\n  3                -1  1     73984  models.common.Conv                      [64, 128, 3, 2]\r\n  4                -1  2    164608  models.common.Bottleneck                [128, 128]\r\n  5                -1  1    295424  models.common.Conv                      [128, 256, 3, 2]\r\n  6                -1  8   2627584  models.common.Bottleneck                [256, 256]\r\n  7                -1  1   1180672  models.common.Conv                      [256, 512, 3, 2]\r\n  8                -1  8  10498048  models.common.Bottleneck                [512, 512]\r\n  9                -1  1   4720640  models.common.Conv                      [512, 1024, 3, 2]\r\n 10                -1  4  20983808  models.common.Bottleneck                [1024, 1024]\r\n 11                -1  1   5245952  models.common.Bottleneck                [1024, 1024, False]\r\n 12                -1  1   1574912  models.common.SPP                       [1024, 512, [5, 9, 13]]\r\n 13                -1  1   4720640  models.common.Conv                      [512, 1024, 3, 1]\r\n 14                -1  1    525312  models.common.Conv                      [1024, 512, 1, 1]\r\n 15                -1  1   4720640  models.common.Conv                      [512, 1024, 3, 1]\r\n 16                -2  1    131584  models.common.Conv                      [512, 256, 1, 1]\r\n 17                -1  1         0  torch.nn.modules.upsampling.Upsample    [None, 2, 'nearest']\r\n 18           [-1, 8]  1         0  models.common.Concat                    [1]\r\n 19                -1  1   1377792  models.common.Bottleneck                [768, 512, False]\r\n 20                -1  1   1312256  models.common.Bottleneck                [512, 512, False]\r\n 21                -1  1    131584  models.common.Conv                      [512, 256, 1, 1]\r\n 22                -1  1   1180672  models.common.Conv                      [256, 512, 3, 1]\r\n 23                -2  1     33024  models.common.Conv                      [256, 128, 1, 1]\r\n 24                -1  1         0  torch.nn.modules.upsampling.Upsample    [None, 2, 'nearest']\r\n 25           [-1, 6]  1         0  models.common.Concat                    [1]\r\n 26                -1  1    344832  models.common.Bottleneck                [384, 256, False]\r\n 27                -1  2    656896  models.common.Bottleneck                [256, 256, False]\r\n 28      [27, 22, 15]  1    457725  models.yolo.Detect                      [80, [[10, 13, 16, 30, 33, 23], [3, 198, 373, 326]], [256, 512, 1024]]\r\nModel Summary: 342 layers, 62998749 parameters, 62998749 gradients, 157.3 GFLOPS\r\n\r\nTransferred 446/446 items from weights/yolov3-spp.pt\r\nScaled weight_decay = 0.0005\r\nOptimizer groups: 76 .bias, 76 conv.weight, 73 other\r
…
19:44Z", "updated_at": "2023-04-21T20:56:31Z", "closed_at": "2021-03-07T00:33:39Z", "author_association": "NONE", "active_lock_reason": null, "body": "I was running the [Google colab tutorial](https://colab.research.google.com/github/ultralytics/yolov3/blob/master/tutorial.ipynb#scrollTo=BSgFCAcMbk1R) for the repo and  in the last block of code when training the YOLOv3-tiny part, I got this error.\r\n\r\nOverriding model.yaml nc=80 with nc=20\r\n\r\n                 from  n    params  module                                  arguments                     \r\n  0                -1  1       464  models.common.Conv                      [3, 16, 3, 1]                 \r\n  1                -1  1         0  torch.nn.modules.pooling.MaxPool2d      [2, 2, 0]                     \r\n  2                -1  1      4672  models.common.Conv                      [16, 32, 3, 1]                \r\n  3                -1  1         0  torch.nn.modules.pooling.MaxPool2d      [2, 2, 0]                     \r\n  4                -1  1     18560  models.common.Conv                      [32, 64, 3, 1]                \r\n  5                -1  1         0  torch.nn.modules.pooling.MaxPool2d      [2, 2, 0]                     \r\n  6                -1  1     73984  models.common.Conv                      [64, 128, 3, 1]               \r\n  7                -1  1         0  torch.nn.modules.pooling.MaxPool2d      [2, 2, 0]                     \r\n  8                -1  1    295424  models.common.Conv                      [128, 256, 3, 1]              \r\n  9                -1  1         0  torch.nn.modules.pooling.MaxPool2d      [2, 2, 0]                     \r\n 10                -1  1   1180672  models.common.Conv                      [256, 512, 3, 1]              \r\nTraceback (most recent call last):\r\n  File \"train.py\", line 518, in <module>\r\n    train(hyp, opt, device, tb_writer, wandb)\r\n  File \"train.py\", line 79, in train\r\n    model = Model(opt.cfg or ckpt['model'].yaml, ch=3, nc=nc).to(device)  # create\r\n  File \"/content/yolov3/models/yolo.py\", line 81, in __init__\r\n    self.model, self.save = parse_model
…
pe, (1,)) / '(1,)type'.\r\n  _np_qint32 = np.dtype([(\"qint32\", np.int32, 1)])\r\n/usr/local/lib/python3.6/dist-packages/tensorflow/python/framework/dtypes.py:535: FutureWarning: Passing (type, 1) or '1type' as a synonym of type is deprecated; in a future version of numpy, it will be understood as (type, (1,)) / '(1,)type'.\r\n  np_resource = np.dtype([(\"resource\", np.ubyte, 1)])\r\nStart Tensorboard with \"tensorboard --logdir=runs\", view at http://localhost:6006/\r\n\r\n              from  n    params  module                                  arguments\r\n  0             -1  1      3520  models.common.Focus                     [3, 32, 3]\r\n  1             -1  1     18560  models.common.Conv                      [32, 64, 3, 2]\r\n  2             -1  1     19904  models.common.BottleneckCSP             [64, 64, 1]\r\n  3             -1  1     73984  models.common.Conv                      [64, 128, 3, 2]\r\n  4             -1  1    161152  models.common.BottleneckCSP             [128, 128, 3]\r\n  5             -1  1    295424  models.common.Conv                      [128, 256, 3, 2]\r\n  6             -1  1    641792  models.common.BottleneckCSP             [256, 256, 3]\r\n  7             -1  1   1180672  models.common.Conv                      [256, 512, 3, 2]\r\n  8             -1  1    656896  models.common.SPP                       [512, 512, [5, 9, 13]]\r\n  9             -1  1   1248768  models.common.BottleneckCSP             [512, 512, 1, False]\r\n 10             -1  1    131584  models.common.Conv                      [512, 256, 1, 1]\r\n 11             -1  1         0  torch.nn.modules.upsampling.Upsample    [None, 2, 'nearest']\r\n 12        [-1, 6]  1         0  models.common.Concat                    [1]\r\n 13             -1  1    378624  models.common.BottleneckCSP             [512, 256, 1, False]\r\n 14             -1  1     33024  models.common.Conv                      [256, 128, 1, 1]\r\n 15             -1  1         0  torch.nn.modules.upsampling.Upsample    [None, 2, 'nearest']\r\n 16        [-1, 4]  1         0  models.common.Concat                    [1]\r\n 17             -1  1     95104  models.common.BottleneckCSP             [256, 128, 1, False]\r\n 18             -1  1      3483  torch.nn.modules.conv.Conv2d            [128, 27, 1, 1]\r\n 19             -2  1    147712  models.common.Conv                      [128, 128, 3, 2]\r\n 20       [-1, 14]  1         0  models.common.Concat                    [1]\r\n 21             -1  1    313088  models.common.BottleneckCSP             [256, 256, 1, False]\r\n 22             -1  1      6939  torch.nn.modules.conv.Conv2d            [256, 27, 1, 1]\r\n 23             -2  1    590336  models.common.Conv                      [256, 256, 3, 2]\r\n 24       [-1, 10]  1         0  models.common.Concat                    [1]\r\n 25             -1  1   1248768  models.common.BottleneckCSP             [512, 512, 1, False]\r\n 26             -1  1     13851  torch.nn.modules.conv.Conv2d            [512, 27, 1, 1]\r\n 27   [-1, 22, 18]  1         0  models.yolo.Detect                      [4, [[116, 90, 156, 198, 373, 326], [30, 61, 62, 45, 59, 119], [10, 13, 16, 30, 33, 23]]]\r\nModel Summary: 191 layers, 7.26318e+06 parameters, 7.26318e+06 gradients\r\n\r\nOptimizer groups: 62 .bias, 70 conv.weight, 59 other\r\nCaching labels ../dataset/labels/train.npy (8582 found, 0 missing, 0 empty, 674 
…
