…
bel_smoothing=0.0, nbs=64, hsv_h=0.015, hsv_s=0.7, hsv_v=0.4, degrees=0.0, translate=0.1, scale=0.5, shear=0.0, perspective=0.0, flipud=0.0, fliplr=0.5, mosaic=1.0, mixup=0.0, copy_paste=0.0, hydra={'output_subdir': None, 'run': {'dir': '.'}}, v5loader=False, save_dir=runs\\detect\\train6\r\nUltralytics YOLOv8.0.3  Python-3.9.13 torch-1.13.1+cu117 CUDA:0 (NVIDIA GeForce RTX 3070 Ti Laptop GPU, 8192MiB)\r\nOverriding model.yaml nc=80 with nc=5\r\n\r\n                   from  n    params  module                                       arguments\r\n  0                  -1  1       928  ultralytics.nn.modules.Conv                  [3, 32, 3, 2]\r\n  1                  -1  1     18560  ultralytics.nn.modules.Conv                  [32, 64, 3, 2]\r\n  2                  -1  1     29056  ultralytics.nn.modules.C2f                   [64, 64, 1, True]\r\n  3                  -1  1     73984  ultralytics.nn.modules.Conv                  [64, 128, 3, 2]\r\n  4                  -1  2    197632  ultralytics.nn.modules.C2f                   [128, 128, 2, True]\r\n  5                  -1  1    295424  ultralytics.nn.modules.Conv                  [128, 256, 3, 2]\r\n  6                  -1  2    788480  ultralytics.nn.modules.C2f                   [256, 256, 2, True]\r\n  7                  -1  1   1180672  ultralytics.nn.modules.Conv                  [256, 512, 3, 2]\r\n  8                  -1  1   1838080  ultralytics.nn.modules.C2f                   [512, 512, 1, True]\r\n  9                  -1  1    656896  ultralytics.nn.modules.SPPF                  [512, 512, 5]\r\n 10                  -1  1         0  torch.nn.modules.upsampling.Upsample         [None, 2, 'nearest']\r\n 11             [-1, 6]  1         0  ultralytics.nn.modules.Concat                [1]\r\n 12                  -1  1    591360  ultralytics.nn.modules.C2f                   [768, 256, 1]\r\n 13                  -1  1         0  torch.nn.modules.upsampling.Upsample         [None, 2, 'nearest']\r\n 14             [-1, 4]  1         0  ultralytics.nn.modules.Concat                [1]\r\n 15                  -1  1    148224  ultralytics.nn.modules.C2f                   [384, 128, 1]\r\n 16                  -1  1    147712  ultralytics.nn.modules.Conv                  [128, 128, 3, 2]\r\n 17            [-1, 12]  1         0  ultralytics.nn.modules.Concat                [1]\r\n 18                  -1  1    493056  ultralytics.nn.modules.C2f                   [384, 256, 1]\r\n 19                  -1  1    590336  ultralytics.nn.modules.Conv                  [256, 256, 3, 2]\r\n 20             [-1, 9]  1         0  ultralytics.nn.modules.Concat                [1]\r\n 21                  -1  1   1969152  ultralytics.nn.modules.C2f                   [768, 512, 1]\r\n 22        [15, 18, 21]  1   2117983  ultralytics.nn.modules.Detect                [5, [128, 256, 512]]\r\nModel summary: 225 layers, 11137535 parameters, 11137519 gradients, 28.7 GFLOPs\r\n\r\nTransferred 349/355 items from pretrained weights\r\noptimizer: SGD(lr=0.01) with parameter groups 57 weight(decay=0.0), 64 weight(decay=0.0005), 63 bias\r\ntrain: Scanning C:\\Users\\Cola\\ChePaiJianCe\\train\\labels.cache... 243 images, 0 backgrounds, 0 corrupt: 100%|\u2588\u2588\u2588\u
…
