…
earning and multiple parameter prediction per task, in case you are wondering.\r\n\r\n### What I Did\r\n\r\n1) `wandb.watch(self.model)`\r\n2) `wandb.init(project='myproject', dir='/workspace/myproject/')`\r\n3) Start model training.\r\n4) The error occurs instantly.\r\n\r\nI also changed the recursion limit `sys.setrecursionlimit(50000)`, but this did not resolve the issue.\r\n\r\nI appreciate any hints!\r\n\r\n**Model summary**\r\n```\r\nMultiTaskModel(\r\n  (shared): LSTM(\r\n    (lstm): LSTM(3, 32, num_layers=2)\r\n    (linear): MultilinearLayer(\r\n      (model): Sequential(\r\n        (0): Linear(in_features=32, out_features=32, bias=True)\r\n        (1): Dropout(p=0.0)\r\n        (2): Sigmoid()\r\n        (3): Linear(in_features=32, out_features=32, bias=True)\r\n        (4): Dropout(p=0.0)\r\n        (5): Sigmoid()\r\n      )\r\n    )\r\n  )\r\n  (branches): MultilayerBranches(\r\n    (branches): ModuleDict(\r\n      (shared_out): ModuleDict(\r\n        (et): MultilinearLayer(\r\n          (model): Sequential(\r\n            (0): Linear(in_features=32, out_features=32, bias=True)\r\n            (1): Dropout(p=0.0)\r\n            (2): Sigmoid()\r\n            (3): Linear(in_features=32, out_features=32, bias=True)\r\n            (4): Dropout(p=0.0)\r\n            (5): Sigmoid()\r\n          )\r\n        )\r\n        (lwe): MultilinearLayer(\r\n          (model): Sequential(\r\n            (0): Linear(in_features=32, out_features=32, bias=True)\r\n            (1): Dropout(p=0.0)\r\n            (2): Sigmoid()\r\n            (3): Linear(in_features=32, out_features=32, bias=True)\r\n            (4): Dropout(p=0.0)\r\n            (5): Sigmoid()\r\n          )\r\n        )\r\n        (swe): MultilinearLayer(\r\n          (model): Sequential(\r\n            (0): Linear(in_features=32, out_features=32, bias=True)\r\n            (1): Dropout(p=0.0)\r\n            (2): Sigmoid()\r\n            (3): Linear(in_features=32, out_features=32, bias=True)\r\n            (4): Dropout(p=0.0)\r\n            (5): Sigmoid()\r\n          )\r\n        )\r\n      )\r\n    )\r\n  )\r\n  (hetbranches): MultilayerBranches(\r\n    (branches): ModuleDict(\r\n      (et): ModuleDict(\r\n        (mu): MultilinearLayer(\r\n          (model): Sequential(\r\n            (0): Linear(in_features=32, out_features=32, bias=True)\r\n            (1): Dropout(p=0.0)\r\n            (2): Sigmoid()\r\n            (3): Linear(in_features=32, out_features=1, bias=True)\r\n            (4): Dropout(p=0.0)\r\n            (5): Sigmoid()\r\n          )\r\n        )\r\n      )\r\n      (lwe): ModuleDict(\r\n        (mu): MultilinearLayer(\r\n          (model): Sequential(\r\n            (0): Linear(in_features=32, out_features=32, bias=True)\r\n            (1): Dropout(p=0.0)\r\n            (2): Sigmoid()\r\n            (3): Linear(in_features=32, out_features=1, bias=True)\r\n            (4): Dropout(p=0.0)\r\n            (5): Sigmoid()\r\n          )\r\n        )\r\n      )\r\n      (swe): ModuleDict(\r\n        (mu): MultilinearLayer(\r\n          (model): Sequential(\r\n            (0): Linear(in_features=32, out_features=32, bias=True)\r\n            (1): Dropout(p=0.0)\r\n            (2): Sigmoid()\r\n            (3): Linear(in_features=32, out_features=1, bias=True)\r\n            (4): Dropout(p=0.0)\r\n            (5): Sigmoid()\r\n          )\r\n        )\r\n      )\r\n    )\r\n  )\r\n)\r\n```\r\n\r\n**Traceback**\r\n```\r\n---------------------------------------------------------------------------\r\nRecursionError                            Traceback (most recent call last)\r\n<ipython-input-18-1247abacf757> in <
…
